tasks/task2/task2_model.npz (npz, 60659 bytes, 2 tensors)

features f8 [784, 10]
00000000: 85c1 ee4a 5267 f43f 093e a8c7 04d3 d6bf
00000010: 890d 30ef 1162 d5bf 643d 39ca ba51 dbbf
00000020: fdfd 94c6 cfa0 f8bf 863b a8e6 ee08 dd3f
00000030: b107 7b49 0d93 dc3f 7d2e ebbc a098 cabf
00000040: 2aa7 0192 ba9d df3f 14f7 9932 4da3 bebf
00000050: 89da 4f36 5bdd e6bf a543 45fb 7e51 f63f
00000060: ff46 c659 4b46 a3bf 90f4 68f7 17ff e8bf
00000070: af54 d465 7961 83bf 2a6f 8d25 d0a0 c93f
00000080: 98b6 00c4 f91c f33f 4577 18e3 b7ae ccbf
00000090: 7d13 180c 8069 d4bf 04d1 ef04 8080 f2bf
000000a0: b82d 9329 ae86 e9bf e7fc d108 c58a f4bf
000000b0: a0e1 524b 2d3f ec3f 6235 534e 8d2b ea3f
000000c0: 743c 5825 bc42 ebbf 2ba2 2769 337a ed3f
000000d0: 2106 1deb 1731 e4bf 1e7f c4c6 855b d63f
000000e0: 1814 8ae8 52a1 fa3f 8f29 baaf 3572 c1bf
000000f0: cc1b f8a5 42a8 c1bf 4815 630b b14d e53f
00000100: 28fd a171 abd1 e2bf a0f7 325e 9ceb f43f
00000110: dcbb 6e3c aac6 c7bf a069 4fa3 c9e5 ee3f
00000120: e56f 11d0 1831 fd3f f4f1 6d24 5c9d 01c0
00000130: a568 5929 b1d8 f53f fd5d 140e 3755 bfbf
00000140: 5e53 61ce 4548 edbf 127a 2fb7 6ebb f63f
00000150: 48c6 bc5e d12b d73f 2c69 0717 a0d4 01c0
00000160: df1b 25e2 2d2e d13f 12c7 133d 14dd f6bf
00000170: 0db4 0bdf 289a d93f 4b99 77a7 b696 e6bf
00000180: eece 4cdc 1f5e f7bf 4000 3503 b245 e33f
00000190: 4ebf c12e 7858 fb3f faa0 af2f b1c3 db3f
000001a0: b455 83be eb7c b4bf 0054 8842 45f6 a4bf
000001b0: 7fa8 9691 e6fe f53f 5ee8 2bdb 876a 9d3f
000001c0: de76 92a8 c536 ed3f 2af0 4dc3 c4ff e1bf
000001d0: a2c4 9bba b203 f3bf 7861 b65d 7e68 e13f
000001e0: 32c4 6c0c fd37 e2bf 19fd 2f54 8bfb 0140
000001f0: c2e4 cfb1 5f31 c93f 310e acba 9e32 cd3f
00000200: a9cc 4db6 c512 fabf c607 e84f 1c37 c5bf
00000210: 2336 275c dff3 f0bf 1af9 f8b4 c611 cdbf
00000220: 2673 1a54 cbe3 d3bf df2c 6cd9 8aa3 a23f
00000230: 96f7 28dc 6a42 e23f b00a 8bd5 36ea de3f
00000240: 2eff e74b d9da f7bf 079c 89ec bd51 cf3f
00000250: 4e1c 1771 e6fc eabf 53ac 3fab 346a c6bf
00000260: 3b06 2133 de9b e4bf 9fdd 3b68 be9e d4bf
00000270: c451 ffcb 0643 f23f e711 f788 a17f fa3f
00000280: ff79 cfd2 f994 92bf de25 c1de e0a1 f8bf
00000290: ac00 efbd e5d6 f63f 1ba0 8ded a378 f8bf
000002a0: d1ac 68f8 cf19 e23f 0faa 9c8d 8dff e1bf
000002b0: 5c6f 9b8a 5e90 b63f 516f ac12 d293 e53f
000002c0: e25e cd66 bcf0 e43f c6b6 0c63 3a04 d03f
000002d0: 463a ab5b b6d6 d4bf 6dc7 6214 d3c3 a6bf
000002e0: 1cea 7c21 df52 ea3f 60b1 2108 ab76 c43f
000002f0: f69f a11a c462 f4bf 06b3 a405 871d b3bf
00000300: d518 a97e 5fe4 eb3f 4c05 7564 a0f2 fcbf
00000310: 3b8a bbe6 9a60 d23f df9e 618f c420 e63f
00000320: 6ba7 73a7 f4f1 eb3f 19b0 754e 3794 f63f
00000330: 06d0 3357 0703 febf de44 6b4f 6d18 f93f
00000340: 3862 ff0c 3b94 b3bf 4ca1 fb22 4142 ec3f
00000350: 5387 a8d9 360a 0240 5ee5 9d92 5e5e e3bf
00000360: d8c6 056f c7d3 d23f 7c84 f6a7 9ae0 c5bf
00000370: 2333 ecdc 2e81 c4bf dc74 8e1f 119d f9bf
00000380: 75be dd9c 1bc3 e43f 4947 36b1 1189 eb3f
00000390: 4263 f1b5 1d5d f4bf d47f 63b3 c583 e33f
000003a0: bfc1 0a2e 6f36 0040 0416 beed a3f9 c53f
000003b0: 3b9d ad15 f645 e7bf cf78 c23c 4949 a53f
000003c0: b22b 8d3f df83 e23f 05a2 3338 a5e9 fbbf
000003d0: 218b c553 53ea ebbf f3c2 4db7 9e70 dbbf
000003e0: 6d36 349e 5ee9 fa3f da4a 4074 a084 c83f
000003f0: 354b e360 f3fb d13f bf4a 8d12 1e00 eebf
00000400: 1703 719d 318e e7bf 2b06 ce0c 2050 efbf
00000410: 7ba8 8689 eadf 0240 5fe1 d91c 6304 0240
00000420: dbb8 0d8f 0c58 f43f dc35 f31a d523 f43f
00000430: 8772 1de4 286c ddbf 5c7f 9a5c fdd1 ce3f
00000440: 45da 2dca 6a14 d83f 1691 2281 66b7 c33f
00000450: cf3e 58b6 2eea edbf 8a1a 18a9 98ad f0bf
00000460: 035b 799c 5a77 ebbf 3eb3 d295 0ada debf
00000470: 9b8e 41fb ae30 d73f 1c1d fa96 4686 c0bf
00000480: 6e07 3920 5e0c ebbf 0075 65c8 d785 c1bf
00000490: 4eca 0df5 4a1f fabf 7a9a 0000 803f f43f
000004a0: db5d 32f2 493d ed3f 5af8 1584 07a7 f43f
000004b0: 6c0a 1565 103d dabf a4c0 de51 829a fc3f
000004c0: 8536 02b7 1df8 f53f 0480 7f21 1b8a c73f
000004d0: 1b43 ab77 553f edbf d773 e0d6 8de8 f43f
000004e0: 3064 396a 9a8d f7bf 8244 6118 31e7 db3f
000004f0: 842d 6ab6 61d7 d33f fe52 f285 bfe5 d03f
00000500: 1b2a cd3f 14e0 df3f c5b9 5daa e308 ebbf
00000510: 9896 9b2c 6f8e f73f 7af7 b9da bb35 ee3f
00000520: ca80 6e14 9ac0 b73f 7d9f 1c0e 3ca3 e73f
00000530: 05c1 d618 717a f53f bc69 2e79 663c fd3f
00000540: 7c54 ca4e d6e2 dfbf 83ab 7fa3 7f5e f03f
00000550: b043 0ade 4d83 eebf f2b0 da16 78b0 f83f
00000560: 830a 2297 5c08 cf3f 7a41 c338 f4bb e8bf
00000570: 9ea8 e2b4 5c1e cb3f ab67 eff4 4b60 efbf
00000580: dee6 43e2 f575 b9bf bcff 50ef 9d3d d43f
00000590: 7ba9 c772 e990 eebf 04f0 e2f6 6885 fa3f
000005a0: 88a4 9d0b 08d8 08c0 8865 d85c f39d dfbf
000005b0: 7288 a466 c859 0240 1f59 4316 0a58 ef3f
000005c0: 7d25 96e8 779a e9bf 4a08 e546 57d4 ae3f
000005d0: d229 2ad6 b32b e33f 686d 45aa 1ff3 ea3f
000005e0: 2bc8 cd56 26d1 f0bf 6114 0a8a ba51 e93f
000005f0: 677a b01a f833 e83f 27c4 7731 2100 e1bf
00000600: 77d4 92af 5596 e5bf f728 1c51 ab2b a8bf
00000610: 4b86 b995 fff3 e33f effe 1a44 5d2e f33f
00000620: bb06 2d34 9a18 e43f efde 0531 783e ed3f
00000630: 32fd 9f09 82dc f23f a5db a77c b1e7 c9bf
00000640: 4c5e 103e f02b debf c2c4 ab3f 4d33 e1bf
00000650: 427c 5223 156e d03f 9fee 4c46 008f d1bf
00000660: 0f73 36fe 02d6 d03f f9cf 356f 4e68 e83f
00000670: 1f08 62d3 a6a1 fb3f 89da d99c 89d9 f73f
00000680: d71b e345 b861 e13f d9ef b09c 3185 e8bf
00000690: 90ac bd42 cc99 b43f 30c2 aa66 5595 da3f
000006a0: 4a07 5e37 e7d6 e23f e86d efb2 0e34 dbbf
000006b0: c02f 88f2 2b8a b83f 1c2d 9cb8 6d1c b73f
000006c0: 53fa 3824 015a f3bf 180b 57a7 09dc eebf
000006d0: eb04 ef7e 8625 e4bf 3c49 ff19 6681 d9bf
000006e0: 4e92 9db3 76e3 bd3f f5af d665 b0b2 dc3f
000006f0: 6373 1ef3 9bd1 de3f b1ee 6379 3988 e93f
00000700: 3a3a f93a 3cf3 f4bf b907 97e4 09d9 c1bf
00000710: 124d 43ae f185 eabf 8037 fba8 8edc c23f
00000720: 5d96 9bea a14f f7bf 4da9 d346 fdf5 fdbf
00000730: 854f 0a79 843a e3bf d6a3 04e5 dcea ee3f
00000740: ec04 6022 67e5 dabf c857 63e4 248f d83f
00000750: 9c7d 6331 8587 e2bf 8828 b315 cd72 04c0
00000760: 1517 fb4e 5c11 e73f 8ab1 c2e0 b5d8 c8bf
00000770: 27c7 12a9 b773 e6bf 02fe a79b 3267 e0bf
00000780: d477 b6e3 a3e9 fdbf afdb a31f 7e48 d5bf
00000790: aa3c 7221 5609 ebbf b0c0 263c fdeb e8bf
000007a0: eb06 5ea5 ec08 f03f b7c4 95e0 8c35 d0bf
000007b0: 13e2 60d8 e5a8 cfbf 2785 cfad 7d71 d0bf
000007c0: 2cd2 393f 72e0 f53f 4187 9448 d5cb ef3f
000007d0: 3d29 c52b 726f e9bf 41c8 9373 288d c2bf
000007e0: acc9 b823 f463 e7bf b079 09d7 2805 da3f
000007f0: 2e55 167f d1de bebf 1304 7a6a 3ced c2bf
1.2752249648147835 -0.35662955758832077 -0.3341107211892554 -0.42686338184736017 -1.5392606503590962 0.45367023968804465 0.44647533584440696 -0.20778283333344297
0.4940020013660723 -0.11967928395639787 -0.7145210324077463 1.3948964896446594 -0.03764567824249631 -0.781139357779141 -0.009463261051261133 0.20022012551896157
1.194574132572063 -0.22408197964335322 -0.31893922024783433 -1.15637208870345 -0.7976904689798436 -1.2838793129483805 0.8827120276610465 0.81781640336855
-0.8518963555706152 0.9211670926861805 -0.6309928504999257 0.34933609400649057 1.664385708195601 -0.1362979038279488 -0.13794739822352964 0.6657338354495232
-0.5880944461240789 1.307522170987319 -0.18575027418907453 0.9655502500202608 1.8244865539227189 -2.2018359037449446 1.365403329391975 -0.12239402860392797
-0.9150723486769541 1.4207598834688082 0.362049429432862 -2.228820972360287 0.2684435566374627 -1.4289743791418386 0.40003415853317464 -0.7058976431697287
-1.4604796033353824 0.6022577345502285 1.7090989901007165 0.4338190999683459 -0.0800311412925428 -0.040941395160338345 1.374731606202232 0.02872669482437861
0.9129360477852193 -0.5624717535533865 -1.18840287107404 0.544005568534927 -0.5693345301316468 2.247824342455385 0.1968192690108364 0.22810730089996548
-1.6295830842252974 -0.1657443418662849 -1.059539184544868 -0.22710498653936712 -0.3107784577676277 0.03640397934040051 0.5706075954437775 0.4830453000433108
-1.4909298863494302 0.2446820645302241 -0.8433716019434401 -0.17511614190820754 -0.6440268515218074 -0.32218895129286723 1.1413639038702152 1.6561599111747627
-0.018146422855233265 -1.5395210934969934 1.4274651927262694 -1.529453208868296 0.5656509258018564 -0.5624454274996554 0.08814040073360502 0.6742945065229639
0.6543867118698155 0.2502580611497759 -0.32560500099217327 -0.04446277259684348 0.8226161626874418 0.15987146279384046 -1.2741128006255145 -0.07466930282380355
0.8716275667036607 -1.80923499337253 0.2871463063476402 0.6914999771515474 0.8732856054823349 1.4111855568726297 -1.8757394224494432 1.5684636213593914
-0.07648057048152956 0.883087700201068 2.2549874310069895 -0.6052697051629072 0.2941759666638126 -0.17091687394443855 -0.1601923540805724 -1.6008464081453928
0.6488168777268145 0.8604820691273086 -1.2727334124703735 0.6098354819951006 2.0265792462380143 0.1716809187748113 -0.7272901938821755 0.04157475344367045
0.5785976639975756 -1.7445423312548212 -0.8723541866459962 -0.42874877835042396 1.6819750003664027 0.19154744793248463 0.2810028501673288 -0.9375143396703932
-0.7361076426533114 -0.9785309076398269 2.359334062978687 2.252142167472058 1.2714963520079923 1.2587481549011192 -0.45972654606684 0.2407833769002491
0.3762461637883557 0.15403443627759178 -0.9348367272777639 -1.0423819165459087 -0.8583195739873591 -0.48205818778187737 0.36234640633322507 -0.12909777042316584
-0.8452597264624566 -0.13689706120468514 -1.6326398441712118 1.265502929696281 0.9137315493016404 1.2907786521532416 -0.4099770533686413 1.7877219389011225
1.3730752133155033 0.1839021600308116 -0.913981183746816 1.306775893556951 -1.4720710896856524 0.43598582630972527 0.310020855082904 0.2640227134773311
0.49805170279128824 -0.8448351218665314 1.4722739927760014 0.9440593025208124 0.09278262137241025 0.738676097452284 1.3423930139798028 1.827246163715798
-0.49822004026766087 1.0230709444683448 -0.9535283409805881 1.543083276056731 0.24244267825641339 -0.7729436024329026 0.2118640788297101 -0.9805049690141819
-0.09945618413976429 0.3162607991289368 -0.9551894418521408 1.6575708049776958 -3.1054840953334555 -0.4940155417148948 2.2938392657243236 0.9794969973397974
-0.8001060049729599 0.060213782695897125 0.5990847762016591 0.8421781850442303 -1.05106195361851 0.7912266441422952 0.7563438912655557 -0.531265827767247
-0.6746014050646768 -0.04720816960441881 0.623534958296838 1.1988194141740072 0.6280032176075204 0.9138756711463126 1.1788349510168925 -0.202383218638457
-0.4714317899792817 -0.537512420995107 0.2567189068740313 -0.2743530928162076 0.2630622370286781 0.7627327129434881 1.7269657380243257 1.490609753321822
0.5431786885245583 -0.7662590084432807 0.08047176961342672 0.4153645994765922 0.5887332993881753 -0.4250523326315645 0.09585833235922703 0.09027753598291038
-1.2094737448639037 -0.9643600719794874 -0.6295807341740817 -0.39852287806310804 0.11675207028526666 0.4484063143270299 0.4815435289581755 0.7978789683251845
-1.3093836120275584 -0.13943599378222674 -0.8288505939075625 0.14735587359467317 -1.4569415249219653 -1.8725559965774494 -0.6008932460849655 0.9661697838793042
-0.4202516399091809 0.383736823115552 -0.5790430035230432 -2.5560552306461126 0.7208692114442977 -0.19411347841868248 -0.7016256620611089 -0.5125973739777125
-1.869541062834732 -0.33254960145807905 -0.8448897031065787 -0.7788072752791972 1.0021788081798444 -0.25326845104343526 -0.24734185281137452 -0.2569269368523969
1.3672964544067652 0.9936319749433339 -0.7948542456518123 -0.1449328007070694 -0.7309513757411898 0.4065649127932387 -0.1205874381324363 -0.14786486815504016

labels f8 [1, 10]
00000000: f4bd fef9 535d fbbf b45c 6d72 8d94 f43f
00000010: 80d3 9e4e ca52 a83f 3d81 17b7 5511 efbf
00000020: d25d 57d1 6a2a c13f 5ff7 0a68 9c73 0140
00000030: 50ab 1604 c229 f0bf 4e98 8103 6656 f53f
00000040: 8552 fd40 eb7e 06c0 dbc4 6234 75e3 eabf
-1.71028516439753 1.2862677068531356 0.0475066395733057 -0.9708660675060298 0.13410697194807014 2.181450665316262 -1.0101947936734241 1.333593381591999
-2.8119721486385196 -0.8402658484611963
