tasks/task2/task2_model_test.npz (npz, 60682 bytes, 2 tensors)

features f8 [784, 10]
000000 11 02 34 c1 98 99 e2 3f df 30 7b 38 6d f1 8a bf
       0.5812495969294692 -0.013155797277612567
000010 62 73 4b ea 85 26 d1 bf cf e3 70 bb 24 5a 00 40
       -0.26797626381249107 2.0440153735948807
000020 73 c5 6e b0 2d cf f2 3f 5e d7 b7 6a da 54 e0 3f
       1.1755806819822652 0.5103580555284954
000030 1d 2f 09 4d 10 5c b0 3f 40 28 5a cf 3c f9 dd bf
       0.0639047802043788 -0.4683372521327591
000040 e7 fc 26 84 91 74 00 c0 3a e2 76 95 e8 36 f5 3f
       -2.056918175163094 1.3259054029896462
000050 30 16 d2 0d 9e 4a d1 3f fd f8 82 f8 98 c4 ea 3f
       0.27017928456948237 0.836498723386995
000060 82 c6 30 da 56 c7 d1 3f 1f 81 0a 43 4f 7c f3 3f
       0.27779170329731795 1.217849027518305
000070 75 31 b5 cd 97 7b f8 bf cd a1 64 41 95 f2 f0 bf
       -1.5301740680179965 -1.0592243723314028
000080 14 f6 01 42 35 49 f5 bf b7 1e 5c 44 9c f1 eb bf
       -1.330373056261469 -0.8732434592393109
000090 31 4b 3a 96 a4 26 e7 bf 66 eb c2 d5 fa 3e f1 3f
       -0.7234671529898603 1.0778759336523875
0000a0 05 cf 95 81 79 a2 f8 3f df 4b 65 d3 5f dd d7 3f
       1.5396666585847367 0.37288661617384194
0000b0 86 ce 86 50 18 c3 bf bf 2f 23 93 39 c2 a9 c9 bf
       -0.12407066312771961 -0.20049312411563266
0000c0 b8 f7 88 aa e1 cc f4 3f 5c 51 ae 09 25 60 d7 bf
       1.3000198995136838 -0.36524320550349443
0000d0 a9 c5 0d 74 ff ac d7 bf cb 39 27 50 c7 74 f3 bf
       -0.3699339516961922 -1.2160103922829986
0000e0 5c 79 b6 c8 0a 9e e0 bf 62 2b 84 f4 3a 85 d1 bf
       -0.5192922516032854 -0.2737567317823758
0000f0 ec ce 8b 25 c4 5e ef 3f 05 b2 e2 17 0d 2a e2 3f
       0.9803181393931175 0.5676331964983211
000100 63 45 c3 21 08 cb f2 3f 4f bd da a4 60 08 f0 3f
       1.1745683020456787 1.0020452918650624
000110 64 24 42 ef 10 4c f1 3f 81 64 3d e2 fd ae d6 3f
       1.0810708375959388 0.3544306477902595
000120 86 31 d2 83 7d 6f eb bf f7 6c 94 5a 60 d4 e3 bf
       -0.8573596548681486 -0.6196748513351896
000130 e5 da 39 45 dc ef e7 bf 74 20 a2 d3 9c 5c f4 3f
       -0.7480298378057709 1.2726104990888674
000140 ba 33 65 e0 ec a9 ec 3f 53 bb cf b9 fd ad e1 3f
       0.8957428343506912 0.5524891499643253
000150 ac de b7 15 e4 e7 e0 3f ef 82 e1 92 33 f0 e6 3f
       0.5283070015129474 0.716821467282072
000160 7a 7b 26 b5 6a 3c f2 bf c8 d2 1a 5f b1 14 e3 3f
       -1.1397502018150747 0.5962759835734568
000170 4d e3 0f c3 28 0d e5 3f de b9 2b 4f 84 0b f0 3f
       0.6578563508802319 1.0028117268189969
000180 f5 ce 02 8b 72 ba fb 3f b0 0e 35 ed b9 67 f2 bf
       1.7330193929782898 -1.1503237977894223
000190 28 76 fc de 5f 66 e7 bf 71 82 52 1e e1 d2 cf 3f
       -0.731246886749152 0.24862302761632152
0001a0 83 58 6d 36 2d 4f f3 3f ff f5 47 93 9e 91 c8 3f
       1.2068302274761045 0.1919439524789794
0001b0 eb 21 42 28 21 f4 e4 bf 01 9e 6e 07 bf 86 d1 bf
       -0.6548009668632039 -0.27384925580778946
0001c0 4f a5 b7 a3 8b 6c c2 3f c9 5b 3c 1f 7e 3c cd 3f
       0.14393754476558704 0.22840858960327484
0001d0 f6 9f ec 65 3c 83 fb bf c3 8a d2 b3 1e 88 f2 3f
       -1.7195400220316492 1.1582324051202455
0001e0 47 bb fb dd 1f 91 b8 3f 66 5d 11 db 94 46 00 c0
       0.0959644238425713 -2.0344636072801903
0001f0 57 31 06 0d f6 40 e2 bf 4b 5b 58 fb 0f 5f 99 bf
       -0.570429826200363 -0.02477669688786514
000200 d3 6b ed 0b 76 25 f6 3f 32 4c 33 e7 f2 0f ed bf
       1.3841457811274622 -0.9081968799240541
000210 09 b2 53 88 f7 4f eb 3f d0 1e 74 9e d9 05 f7 3f
       0.853511587394281 1.438928240737301
000220 16 76 ea fb 9b bd db bf 03 5f f8 ba 2e 48 fa bf
       -0.4334478340259421 -1.642622690536826
000230 cd ec 4e 5c 2b b9 ef 3f 5f 35 bb 18 9b 30 e8 bf
       0.9913536837479114 -0.755933330825126
000240 02 d7 2d 31 08 4f d5 bf 36 ab 4b 75 6c 91 d0 3f
       -0.33294873049395346 0.25887595610281566
000250 48 82 6d 72 73 14 f0 3f 4d 2a df a0 48 74 e6 bf
       1.0049929113230451 -0.7016947881723553
000260 5b e2 8e f5 8f 4a e9 3f 6e a1 8c 75 a9 eb da 3f
       0.790351848226304 0.4206336639349705
000270 8c b6 8e 8f 68 8e e8 3f a8 13 c3 29 1d 2e ce bf
       0.7673838428360837 -0.23578228511010235
000280 c5 a9 de 73 20 8c ec 3f f2 61 36 6e d1 70 e7 bf
       0.8921053183633424 -0.7325217392527164
000290 ff 13 89 9c 0c a1 fc bf 3a 75 d9 a0 ac 5b b1 bf
       -1.7893186678568325 -0.06780508925426867
0002a0 c5 cd 7e 35 d4 bf b5 3f 39 e0 ef dd c3 6d f8 bf
       0.08495832735098137 -1.5267981213965085
0002b0 c5 27 6b 16 ca c3 d2 3f 44 9a cf 88 9c e3 d9 bf
       0.29320003690065405 -0.40451730118221385
0002c0 37 da 9e 62 3b 02 eb 3f 0e 3b 64 e2 69 72 e4 bf
       0.844022457712362 -0.6389665052136893
0002d0 95 64 70 c1 33 08 f7 bf 5f 47 00 a7 0e 02 eb bf
       -1.4395024830066963 -0.8440011274089833
0002e0 4d 5f 62 bd eb e7 e7 bf fc 51 56 5d e2 09 e9 3f
       -0.7470606516753634 0.7824565718643153
0002f0 f8 df a0 1f 1e 6f e2 3f 9b 03 bd 7d 8f 2e eb bf
       0.5760641687147645 -0.8494336562945252
000300 de 47 79 9f d0 ec e3 bf 5f 6a fe 88 b4 87 db bf
       -0.6226580729219184 -0.43015778902341667
000310 77 6a 34 82 f2 45 c7 3f 86 7e 63 46 40 7f f4 bf
       0.18182212217000757 -1.2810671567494025
000320 42 96 b0 c0 16 96 e9 3f d0 fd 36 e3 9e 3c d3 3f
       0.7995713962051882 0.30057499112078023
000330 e1 0b 5d 52 34 ec e0 bf 49 ff 10 a1 f1 90 f0 3f
       -0.5288335426961305 1.0353866855293339
000340 5c 18 2b 96 08 52 d3 3f 32 8b 9b 21 d2 d9 c3 bf
       0.30188193001629826 -0.15508486405368554
000350 2b 46 97 cd 29 41 d3 bf ce d5 30 d4 fb 7b c5 3f
       -0.3008522517894529 0.16784618245007582
000360 40 60 c9 8c 91 1c 02 40 5e f1 05 26 f3 e2 cc 3f
       2.2639494894938537 0.22567595821954972
000370 5a 0c 98 ae 66 11 bc bf 61 f0 9b d7 1d 76 e2 3f
       -0.10964051973864866 0.5769185267559004
000380 fc fd cb d4 54 d3 f5 bf 74 16 44 34 71 b8 e4 3f
       -1.3640945732475975 0.647514917451828
000390 89 87 c1 f3 dc c0 f0 3f 29 dc 29 9d 6e 54 d2 3f
       1.0470857164113758 0.2864033255386312
0003a0 84 4b d7 11 7c b4 cc bf 73 b8 e4 cb 64 e6 eb bf
       -0.22425795432226547 -0.8718742353719463
0003b0 6c fa 67 e7 4a a5 f3 bf 59 77 e3 ec 51 5b ea 3f
       -1.2278546370795551 0.8236474634866041
0003c0 54 00 9f d2 5f a4 f3 3f 21 bb 75 fe 96 86 f8 bf
       1.2276304461847944 -1.5328588428344079
0003d0 52 15 a2 c6 88 a2 ed bf da 02 9a 53 d3 5f cc bf
       -0.9260906104615663 -0.2216743620120017
0003e0 50 a6 b1 62 e9 3c fd bf 3f 50 cc 27 c0 b2 89 bf
       -1.8273710112793147 -0.012547970976392374
0003f0 9b 82 6d 6b ab 14 df 3f 57 1d c4 84 8e 3f ed 3f
       0.48563657275193756 0.9140083878600461
000400 4e d7 ba 49 01 86 d2 bf 78 24 b2 5e b4 f0 e2 bf
       -0.28942901802235077 -0.5918828820732775
000410 4a f0 b4 d6 de 53 d0 3f 3f 73 af c1 61 9d e7 3f
       0.2551190468545924 0.7379616530339276
000420 c4 01 8b 9d 60 0d f2 bf 93 f6 bb 83 9f ec ec bf
       -1.1282659677527684 -0.903884656232281
000430 d0 2e 7c 0d f8 ff ec bf 5a 28 ed 97 3c f0 ec 3f
       -0.9062462104206706 0.9043257682144585
000440 7a 57 b1 dc a1 b1 df 3f f1 5a fd c0 35 e2 f5 3f
       0.49521681358361713 1.3677270449313108
000450 92 15 ff 46 ef 7e b7 bf 4d 4b d5 fd f5 78 e3 bf
       -0.09178061946211916 -0.6085157354049017
000460 6d 23 04 06 9a 80 f1 bf f8 d1 e8 86 f1 87 f0 3f
       -1.0938968882566897 1.0331893224621336
000470 98 2c c3 a1 98 85 f0 bf 46 f5 ed 65 93 4a fa bf
       -1.0326162642329901 -1.643206976091578
000480 71 9d 50 a0 f5 8c e5 bf 85 2c 58 a4 7e 0c f5 bf
       -0.673456967463535 -1.3155504626945753
000490 e3 78 ab 19 97 b8 d1 bf b4 8b 45 48 b0 ed f3 bf
       -0.276891493862321 -1.2455294440376123
0004a0 47 f9 91 2f dd f2 f0 bf 9d 52 94 ca 02 a4 dd 3f
       -1.0592929704867673 0.46313543112891314
0004b0 9f 99 e0 75 70 ce d7 bf 47 ec 48 e8 24 b5 02 c0
       -0.37197505485019094 -2.338449301457817
0004c0 15 08 bd e8 60 46 d7 bf 33 b3 d6 15 1e 57 d0 3f
       -0.3636705658756239 0.25531723148997115
0004d0 9c 09 ab 3f 5a 65 f6 bf 0a 9d 71 13 65 4f e7 3f
       -1.399744270995689 0.7284417514573829
0004e0 ca be bb 70 a0 60 fa bf d8 3a 2e e9 cf 1a e9 3f
       -1.6485905078551917 0.7845229677494343
0004f0 c9 93 2e 81 0b 50 ef bf 4e eb e5 35 d3 1e e0 bf
       -0.9785211108288588 -0.5037628224084558
000500 ef e3 f9 50 31 82 e3 bf b9 d6 11 99 99 69 ec bf
       -0.6096426564755556 -0.887890624012207
000510 55 7e 33 4a 7a ae f2 3f 50 92 f6 a1 7a b2 ed bf
       1.1675970934374125 -0.9280369914382138
000520 5d ec 24 9f df 53 e8 bf 99 0e 55 19 84 38 d7 bf
       -0.7602384670530103 -0.3628244635949414
000530 98 c7 a0 b7 f4 c3 cb 3f a4 97 80 d5 71 04 f0 bf
       0.21691760030949747 -1.0010851230558524
000540 7c 9c 7d a9 3e 7f e1 3f f4 77 61 cc bd 9f eb bf
       0.5467828092922811 -0.863249682599188
000550 03 d1 f2 f8 ac bb 03 40 f7 fe e3 e2 7f 68 9b 3f
       2.4666385125257206 0.026765821669868264
000560 a0 d7 3a 32 c7 d1 ce bf 37 36 6c 79 22 84 e4 bf
       -0.24077691986684346 -0.6411297198807863
000570 8a 8f 67 37 39 6f f3 bf 79 69 79 1e 35 b3 d6 bf
       -1.214654175209008 -0.3546879575348139
000580 42 df 56 b1 eb 31 f6 bf 73 3d da 6a d8 26 df bf
       -1.3871876647298937 -0.4867459338647315
000590 e2 8a cc ff 8f 9f 60 3f cd c8 89 5a 6f 42 ef bf
       0.0020292103275932763 -0.9768597381901373
0005a0 87 c1 47 51 08 ea e4 bf 64 b5 92 b0 eb 53 ef bf
       -0.6535684192186161 -0.9789942215626692
0005b0 5c 2a c6 66 a6 f1 e8 bf 51 48 f5 cc ea 5d ec 3f
       -0.7794982917124105 0.886464500721795
0005c0 30 de b0 50 69 c2 e0 3f a8 89 0e 8a f1 f2 f3 3f
       0.5237318588251068 1.2468123810618668
0005d0 7e 42 52 56 f7 bd d1 3f d1 c2 70 72 96 5b d8 3f
       0.2772196143132887 0.3805900685866109
0005e0 de d1 18 2d 45 a1 d0 bf b1 7c c6 10 99 c6 e9 3f
       -0.25984315303801775 0.805492909206711
0005f0 14 e1 7b 99 c8 90 89 bf 8f e4 57 22 11 bd e1 bf
       -0.01248318403621388 -0.5543294592636289
000600 16 31 f0 54 3b 75 95 3f 74 08 99 d0 d6 e3 b6 bf
       0.020955016192645358 -0.08941404907912603
000610 77 d0 83 ad a3 a1 ef bf 27 f3 c6 85 81 50 ec 3f
       -0.9884813679659733 0.8848273861727635
000620 92 f7 8f ad 6e 5c c7 3f ad dc 39 d0 50 d9 83 3f
       0.18250831103062787 0.009691840509942951
000630 44 6d 2b ca e4 c1 cd 3f 8e 65 f9 59 47 29 d2 bf
       0.23247966643871554 -0.28376945292037525
000640 f8 13 25 96 c4 91 e4 bf ba 06 08 ea de 7b ee 3f
       -0.6427939350620582 0.9526209422039849
000650 e4 ef 59 49 dd 48 e0 3f 49 3f fa 6d 32 33 ff 3f
       0.5088945801394371 1.949999265289039
000660 65 17 ee 4e 4d b2 ea bf 0e f5 eb 4b 17 ac e7 bf
       -0.8342653791048461 -0.7397572024198398
000670 0e 7b 4a e4 4b 83 f9 3f 7b 72 66 fc f9 b4 c7 bf
       1.594554797898755 -0.1852104647085929
000680 32 45 3c 0c e0 c8 e2 3f 2c 3e c8 58 2d 98 01 c0
       0.5870208968137034 -2.1993052421674033
000690 ab 13 79 fa 51 b3 f8 bf 11 3b 23 a1 73 2c c9 3f
       -1.5437793525791033 0.19666905754134992
0006a0 71 d2 61 6e 6a 20 f5 bf 06 75 1f 10 72 2a ea 3f
       -1.3204140006829699 0.8176813425922382
0006b0 b2 bb 45 bf ac 35 ea 3f 8a 43 0b 56 ea 4a f6 bf
       0.8190520988263101 -1.393289886578915
0006c0 09 80 09 a3 e9 e4 d6 bf c7 7e 94 27 89 0c c7 3f
       -0.3577217189940716 0.1800700610410699
0006d0 8f 1e 1c eb fe cc f0 bf f2 07 68 65 15 8c ba 3f
       -1.050047796628778 0.10370000577680097
0006e0 04 43 4c 5a 02 57 f8 3f e6 d4 00 35 8c fd ad bf
       1.5212424781095146 -0.05857504031193077
0006f0 31 c0 bb 4f 9e fb e1 3f 95 c8 4f bc ee 5a c7 bf
       0.5619651372235294 -0.18246254153161048
000700 d9 fb a2 7a b2 4e e8 3f 4c d9 c4 1c 49 a2 fa 3f
       0.7596065898177314 1.6646205066477533
000710 2d c8 f3 bc 54 58 02 40 c1 a4 2b 59 6e f4 d9 3f
       2.2931303750892966 0.4055438872151847
000720 ba 60 ca 1b db 89 f1 bf 56 56 85 db bf 63 da bf
       -1.0961562238281162 -0.41233822286208033
000730 5e f6 31 d4 b4 55 df bf 19 74 af 8c c6 2b db 3f
       -0.48960610124763615 0.4245468496208687
000740 29 7a 7e 75 2c 5b bc bf 39 85 ad 05 d2 96 01 40
       -0.11076619976527326 2.198642773015902
000750 6d 27 90 bd af ee d7 bf 0a a6 4f 4a c5 98 d9 bf
       -0.3739432669832386 -0.3999493814177134
000760 c6 46 ca 1a d4 a4 eb bf 59 fa 3a 5d 3b ab db 3f
       -0.8638706706280679 0.43232616524247686
000770 fe d2 65 2c c9 59 df bf e1 ee 89 c5 3a d1 ef bf
       -0.48985509238927694 -0.9942907198123657
000780 95 5a ba c7 21 41 8f 3f b1 10 d7 4e 61 f7 ea 3f
       0.01526094809314075 0.8426977672429726
000790 30 fa 55 5d 9a 38 e9 3f 82 39 b3 a2 41 00 dc 3f
       0.7881595442739293 0.43751564873391413
0007a0 ec f0 c2 c0 3b cf f5 bf 16 32 6f 7b 61 a6 c8 bf
       -1.3630940942521717 -0.19257753874843847
0007b0 55 60 15 b7 c1 1e ec 3f ed 60 04 b0 48 08 ef bf
       0.8787544799661285 -0.9697612226327955
0007c0 c8 93 9b d0 8b de f8 bf bf 13 68 1c 77 86 9c 3f
       -1.5543325566043098 0.027856694325254724
0007d0 de c6 d8 db ec 52 e8 3f 37 37 cb 01 6c 2e d7 bf
       0.7601227086908826 -0.3622083680646599
0007e0 ed c1 ca 28 f3 97 fd bf f6 07 b1 57 ce 97 f1 bf
       -1.849597129196009 -1.0995620179605772
0007f0 02 a6 48 87 bc f7 f9 3f d6 fc 87 8c 07 a1 b3 bf
       1.622982529117849 -0.07667586499154608

labels f8 [1, 10]
000000 d4 0b 97 eb 55 f8 fa bf 38 47 78 7d f4 70 f5 3f
       -1.6856288149581262 1.3400769139447686
000010 73 36 41 c4 fa 3b c1 3f e8 ec ac 9e e5 1e eb bf
       0.1346429308199962 -0.8475216006403601
000020 8d 0b e0 77 6c 73 b8 3f e4 e7 29 58 7a 7d 02 40
       0.09551122595443769 2.3112685096539156
000030 04 63 23 f5 5d 3c ee bf 1d 9f 5e b2 20 d3 f5 3f
       -0.9448690212112472 1.3640448539317227
000040 c0 09 da 80 3e 28 06 c0 89 24 62 21 76 c7 ea bf
       -2.7696504656352943 -0.8368483211535401
