tasks/task3/task3_model_test.npz (npz, 610184 bytes, 4 tensors)

l1w f8 [784, 100]
00000000: 3e64 5940 7769 a9bf 4847 785a e162 bf3f
00000010: 4bae eb5e cfc8 9b3f bea0 055c 1176 6c3f
00000020: b9ba 0d69 625d 6cbf 7ec0 43b2 ab27 93bf
00000030: eeb5 3cfd 2c7c a83f 4573 a3cd 3d28 a2bf
00000040: 782b ab09 2007 9dbf 0b49 bd7c 567e 88bf
00000050: 6945 f1d6 1a3d 953f 446d 3011 994f 8e3f
00000060: 37f6 7b53 38cc 9ebf 819f d754 6162 b13f
00000070: 3760 34e9 cb32 80bf da6d 0c02 4a33 61bf
00000080: 6ad0 a5a3 606c 9cbf 2784 83f9 e235 6a3f
00000090: e7cb 8229 afd3 98bf 524b b881 9aec afbf
000000a0: 27fe 3f47 fd4f 67bf 9a6a f3af d3bf a9bf
000000b0: 0214 b6fd 8491 87bf 8fe5 a51f ee23 b0bf
000000c0: 690e e385 d33f a43f 070a 859c ad56 93bf
000000d0: 82a2 2614 abdc b0bf c27e f97a b41c 9dbf
000000e0: e859 bceb 6c18 9b3f 9ad1 792a b1ca a03f
000000f0: 6396 2ca8 24f6 943f 5e8e 8173 a64b a13f
00000100: c1de c085 0614 873f ea62 e30c 2591 bf3f
00000110: d2dc 6a90 4df8 a43f 8e76 1ae9 d856 93bf
00000120: dc69 dd99 b01b 183f 00ba 3b69 91db 94bf
00000130: 01f9 6370 266f 91bf 57eb eb8f 3985 76bf
00000140: ba55 1041 d1a8 abbf f4ec 5561 ee12 93bf
00000150: c5e7 2fcb a0b2 69bf eea1 a4cd dc49 a7bf
00000160: 4d89 cf08 ffd3 993f bf0a 1c2a 383c a6bf
00000170: 11e4 ab96 69ef 97bf 0e66 bf3a 5785 b73f
00000180: 708a e38d 3f91 aa3f f91a 4899 6c25 b4bf
00000190: f3cf dcb4 648b 703f 07ab 6f0d 4991 a13f
000001a0: 31fe 9b2d 40d4 b0bf deb0 7999 6b2e 8ebf
000001b0: 0240 e1ed 60b7 a8bf c93b 1f83 a84d a13f
000001c0: e8d8 f474 49e4 a73f 808d d837 bea0 b13f
000001d0: 7e08 88b3 05c9 90bf 42cc a0fc 6088 a8bf
000001e0: 7c60 8a6e 11d6 79bf ac1e 71da a015 9cbf
000001f0: 885c ca58 f1ee 993f 1d1e 8f28 33c3 62bf
00000200: 5aba b9a4 d1e1 ae3f 995a d66b 8afa 923f
00000210: c959 5619 db4b 70bf 0f00 d634 fcb5 b23f
00000220: e8b1 96d4 0e26 b1bf 4ecb ce39 1c65 95bf
00000230: 979e 6340 6f31 b0bf 9c56 d8e8 e045 b43f
00000240: 3987 f95f 96c4 74bf ae74 a7ee 87a6 a9bf
00000250: 33e0 14b9 32e1 743f e412 2576 b184 503f
00000260: 99b9 f702 1646 97bf ba62 50b3 1d12 ab3f
00000270: e287 0e03 e0b0 90bf c1a7 4e60 882c 873f
00000280: 96b6 5e38 dcb7 7d3f 786d e2aa ea43 93bf
00000290: 9939 c8f4 101e 903f e0af fe8a 7c20 9ebf
000002a0: 3a46 79a0 c9eb a53f 5660 1a08 a434 9dbf
000002b0: 4dff 2326 d696 90bf 7032 9170 8be9 90bf
000002c0: 104e b8ff c5e4 b13f 2080 f23d 5b8e 9ebf
000002d0: 38a0 c268 0717 713f ef07 3723 f025 8dbf
000002e0: bf67 c7c8 2167 97bf 6b34 3501 b1d3 7abf
000002f0: 4e3f 823e 77c8 8c3f f905 87ff ba6c a4bf
00000300: 4e37 ed85 0b74 b1bf b3b9 e676 acf8 b73f
00000310: 31aa b6b1 a9e8 9b3f 6603 88e9 e8f4 573f
00000320: ade7 ad38 d967 79bf 4012 bce4 f1f9 b63f
00000330: f600 64dd f0f9 87bf 2f51 6998 28e4 b3bf
00000340: 1276 942f 0ec3 93bf 1ef4 19cb 983a 933f
00000350: e0c3 3234 e57f 773f 1302 b073 6a5a aa3f
00000360: c852 13fe 9315 b03f d9cf 8f4a 8f7d a0bf
00000370: 13a3 485a a7a5 95bf ee7f a7e7 8f49 843f
00000380: 9927 6c5b b9e6 513f 9186 68d6 a003 b23f
00000390: fb9d e97b 480b a5bf 53d1 1ad3 60d0 903f
000003a0: d1e2 c70a 5abd b5bf 6ca0 9fa4 075f a0bf
000003b0: 23ad 423a e7ac 44bf 5928 ccd2 f541 b3bf
000003c0: 7423 380f c2de 98bf 69c6 42a5 846a a03f
000003d0: 9328 fc17 1a88 7abf 6c99 20f6 b768 7b3f
000003e0: 24e5 f960 16dc 883f 9c94 a10e b12d 8f3f
000003f0: 3aa5 b5d7 0d5c 8f3f c5ee a098 ca78 9bbf
00000400: 8779 4d8d aa29 983f e634 d05a 38ff 73bf
00000410: 6391 a263 edf4 9abf 9e77 75a6 872b 7cbf
00000420: 4fac 6f80 715c 99bf d937 7c0b 4759 c23f
00000430: 4a79 b93c 146d 7f3f 203f 636e b3e2 98bf
00000440: 22fe caf4 22ab 82bf bd35 ee0c 77d5 94bf
00000450: 8334 f15c dacd 9abf e482 1179 dc3d a4bf
00000460: 3083 46bf 5a50 b0bf 96a0 b35f 5136 a33f
00000470: 411c e6e5 c5df 983f 8750 e4f3 c6e5 35bf
00000480: dc3f 61a6 a5a9 8b3f 2e4b f274 9253 933f
00000490: 7f26 5be9 ff4c a4bf c595 fd3f b010 84bf
000004a0: 5a55 f363 5c4a 9f3f ac29 dc28 fef7 8abf
000004b0: 30fb ef29 239e a3bf c867 d11c 49b7 b23f
000004c0: 3104 30e8 df90 acbf 7e8b 04a4 5c0e a03f
000004d0: 844e 449b 31b8 adbf 754a d3a5 6c20 7ebf
000004e0: 2903 6210 912c a93f ba11 7f47 d481 8cbf
000004f0: ec9a 11bd 9592 a2bf c720 fcfb 263e 60bf
00000500: 24d3 f40b b54e 51bf 8caf eebc f1f3 973f
00000510: 01d0 67e5 95d8 a73f a56a eb25 1b6a 9c3f
00000520: b206 3e62 a3e4 a93f d230 987e 64f0 a1bf
00000530: 8d55 bb87 f651 9b3f c4a6 9d0a 78a4 b13f
00000540: 1ac6 aea9 6b22 8c3f 83c0 6fd9 1402 933f
00000550: 2315 7888 6b41 aabf 1bf4 1135 68e3 ad3f
00000560: 189f 0c0b 7cb4 9abf a434 181e 7cb3 7e3f
00000570: d9dd 172d d08f 95bf 4350 6c14 330e ab3f
00000580: 05a0 058c 739d b03f ac70 52bd 587a 71bf
00000590: 3852 2449 80c1 a8bf c023 595d 3c37 8ebf
000005a0: 9352 0fc1 706a 993f 423a 341e ba92 b4bf
000005b0: 86a7 3d8a 1fc5 973f 5712 f03f 5849 7c3f
000005c0: 9068 8251 f103 ad3f 4fd3 2bb0 5a0b 883f
000005d0: c038 eb4f d107 953f 66ff fc53 a467 9b3f
000005e0: 7029 fc6b 3a53 923f 66bd 7e52 b6b8 9dbf
000005f0: 377f f9be 473a 49bf 2c23 3474 f01e a6bf
00000600: 0b99 1c06 efad 6bbf 24b5 ca9c 4584 a53f
00000610: 3dfc 75e5 b5a5 8dbf 64c3 f0ee e671 a5bf
00000620: fef2 0baa c446 953f cdfc b4e7 f344 aa3f
00000630: fe19 7f75 ac74 82bf 1d01 2cf3 eedd a43f
00000640: eed9 74ae c2d6 573f 75a6 92d8 3991 c43f
00000650: 0701 e817 6b72 9f3f 72a9 fc2c 923b b1bf
00000660: cb7e df7e b91c a83f b232 eae4 99bc 94bf
00000670: f58c 7458 5571 a73f bc05 4546 2f5f 81bf
00000680: 18d4 889f 6eb3 713f e125 ee79 b3a4 823f
00000690: 6d30 ad63 7642 8abf 5335 d5df 502c 81bf
000006a0: 02da a1eb 3c3f b3bf 3635 0259 efb1 abbf
000006b0: c1f4 4711 7017 9ebf 6c0c 78ba 0b34 9a3f
000006c0: b1a4 3856 9778 7ebf 2814 19d6 df4f 96bf
000006d0: d8b5 90d1 7e58 a43f a683 a05b 1148 93bf
000006e0: 1238 1a9c 6e2b 92bf 155d 0e27 957b a0bf
000006f0: 80b0 e33e 6a33 933f b575 aec8 9975 87bf
00000700: a743 6f38 038c a63f 3845 412e e2c5 a13f
00000710: d272 7cee 9b80 b2bf 57e6 b2ee f069 b7bf
00000720: ab6b a48b 381c a43f 69ba 5350 c58d a8bf
00000730: 774e a782 31c3 abbf 7a9f dee3 9dca 6c3f
00000740: d15b 669b 386b 7cbf 6559 4544 98e4 c03f
00000750: 82fe 47ea 21ce a8bf cb35 ce27 fbdc 67bf
00000760: a0b3 6ef1 2ddc 973f 20f4 c2ca 811a afbf
00000770: 5ec2 1d84 9776 a0bf b0f6 e349 193f 78bf
00000780: 057a 5ae3 f1f3 a7bf a6a2 0867 aef5 9a3f
00000790: ef5f 7380 109a a2bf 121f 3868 5cd2 b3bf
000007a0: 9f36 8ad0 09fb 963f 97f1 1825 b9df 91bf
000007b0: e0a9 9146 fcae b8bf 01be c992 b347 713f
000007c0: 26a0 a9cc 139f 9fbf a3c7 8095 7f4c afbf
000007d0: d396 3979 b3d2 8b3f 7026 d305 4720 91bf
000007e0: aa44 3c56 9d48 b7bf 7fe8 6d18 7f44 aabf
000007f0: 4f53 4ba5 197a 84bf 7668 8469 4d64 91bf
-0.04963276539337656 0.12260254343735 0.02713321701859987 0.0034742678691835607 -0.0034624979093032773 -0.01870601916829217 0.047822385704744494 -0.0354632676623852
-0.028347492780806033 -0.011959720308059937 0.020740908974692305 0.014800258481094127 -0.030075912566635856 0.06790741273255031 -0.00790938668664874 -0.002099651858214574
-0.027757177341712604 0.0031995232676398535 -0.024245011242509575 -0.06235201676840653 -0.002845759090632577 -0.05029164812886684 -0.011508025162365602 -0.06304825089127618
0.0395494557319836 -0.018885338476374993 -0.06586713067975761 -0.028429813390515653 0.026460363281410354 0.032796417651215395 0.020470211758171774 0.03378029022203742
0.011268664318876078 0.12330848278669362 0.04095690143497567 -0.018885983684063627 9.19653452603817e-05 -0.020368835494929627 -0.017025566682598917 -0.005498146869963381
-0.054022349541053186 -0.018626904192825713 -0.003136934328264981 -0.04548540125171373 0.025222763932000892 -0.04342818750412424 -0.023374223538642328 0.09187836822766135
0.051889406271375615 -0.07869604818561617 0.004039185890906782 0.0343115643407455 -0.06573868859776934 -0.014736977215953958 -0.048274067915031096 0.03379561043367791
0.04666356613818029 0.06885899413514629 -0.01639183910629826 -0.04791548808898273 -0.006307666867222502 -0.027426255543359687 0.025325556797352294 -0.0022903441608581724
0.060316611631482345 0.018533861953609152 -0.003978591781012183 0.07308937349262144 -0.06698696794655457 -0.020893517521197773 -0.06325431177139716 0.07919126209921007
-0.005070292856176378 -0.050098655588706506 0.005097578178997297 0.0010081990263454627 -0.022728294306881478 0.05287258924380951 -0.016299724756784324 0.011315408171714727
0.007255420909059082 -0.01881376903530227 0.015739693584743007 -0.029420801147054365 0.042814541663244346 -0.028521121019906857 -0.01620039565841518 -0.016515902276568573
0.06989705556070924 -0.029839921623192933 0.004172352735771816 -0.01423251731364769 -0.02285435474355046 -0.006549540924720802 0.014054233164898424 -0.03989204758864768
-0.06817695636456486 0.09363820937026084 0.02725472590615591 0.001462199643470019 -0.006202553292377217 0.08975135645238996 -0.011707193142229216 -0.07770017357808422
-0.019298764852569823 0.018778216739964042 0.005737204864247197 0.051471068021786824 0.06282925560965247 -0.03220794472863959 -0.021139731297952723 0.009905933625248022
0.001092606556712705 0.07036786303117483 -0.04110170853237701 0.016419899830638695 -0.08492052806094398 -0.03197502026142804 -0.0006309632340352516 -0.0752252235071479
-0.024287254504119685 0.03206266896576155 -0.006477453163606611 0.006691664313655071 0.012138533434369388 0.015223868617065421 0.015312297959740751 -0.026827970090592474
0.02359644401018948 -0.004882068763447855 -0.026324948507537537 -0.006877450832090929 -0.02476670595562452 0.14334953366090877 0.007672385264952128 -0.02430229531529371
-0.009115479560363463 -0.020345554508414788 -0.026175891802541883 -0.0395344636715487 -0.06372611207781342 0.03752378743394151 0.024291126400864952 -0.0003341303562518567
0.013507169857035643 0.018873489749761045 -0.03964996074280424 -0.009797455742680658 0.030557101822372125 -0.013168321248959135 -0.03831586729938008 0.07310921624721722
-0.05579280576058244 0.031359572431276725 -0.05804591198298417 -0.007355141072553741 0.04916814160333722 -0.013919504577537423 -0.03627460415809999 -0.0019827615177555355
-0.0010563629183028634 0.023391511112705696 0.04657429147110293 0.02774851244871947 0.05057249616858196 -0.03503717465727764 0.026679851564798397 0.06891584643531262
0.013737527004056328 0.018562627574227008 -0.05128036538011773 0.05837560317829845 -0.026079118894954595 0.0074953888265671155 -0.02105641627528407 0.052842708819440996
0.06490251701836776 -0.004267069472145984 -0.04835129635663232 -0.01475379142643074 0.024820100577772463 -0.08036387669947323 0.023212902844000925 0.006905884481061073
0.05667070503223315 0.011740406514471195 0.02053763437543732 0.026762549997556027 0.017895615425950806 -0.029024933610057778 -0.0007698870012511132 -0.04320479792119722
-0.0033788364825283516 0.04202477969134069 -0.014476224007692657 -0.04188462893251346 0.02077777183420703 0.05130731776670814 -0.009011599860866856 0.040755717453068586
0.0014550114809260789 0.16068194460722265 0.030709908804056798 -0.06731523130716768 0.04709415124648116 -0.020250706288197313 0.04578654007698361 -0.008482331592520313
0.00432151043110187 0.009103204878345874 -0.012822079579244606 -0.008385307150684673 -0.07518368485202845 -0.05409191094904957 -0.029386282973054238 0.025589164024506436
-0.007439223441488328 -0.021789071505072283 0.03973766620797975 -0.018829604356259154 -0.017743805196509817 -0.03219286062010888 0.018750820244278987 -0.011454774319470265
0.044036961211197316 0.03471285643230221 -0.07227491924681864 -0.09146028354271017 0.03927780823342827 -0.04795662503771753 -0.054223582457464774 0.003514583949215164
-0.006938191529477459 0.1319761594156247 -0.04844766602400076 -0.002912989175860336 0.023300855503908147 -0.06074910736195016 -0.03215478408572346 -0.005919550689439099
-0.04678302669821125 0.02632782462947838 -0.036331668548598255 -0.07742860359587336 0.02244201026274217 -0.017454998864410234 -0.0964200660979837 0.004218770464475608
-0.030880269400228276 -0.061130511283763476 0.013585474144928089 -0.016724691133993053 -0.09095176081997872 -0.05130383656701642 -0.009998512608413583 -0.016984185757884927

l1b f8 [100]
00000000: 7cee 5d54 11b6 f43f 8c7b e6c8 9eae f63f
00000010: 4e64 36dd 6bd5 ffbf cc74 8fa0 d9c2 ebbf
00000020: 5020 4c36 0b2e f9bf 1bfc 4755 7673 cb3f
00000030: aa32 43d6 a496 ecbf 756e 3902 8110 e03f
00000040: d64c 7836 b276 f1bf 977e e592 238f 0ac0
00000050: 8c3d 7882 4bac e4bf d853 5648 530a f4bf
00000060: 8a6b 3d19 40a1 e9bf 73f5 bf65 e96a 03c0
00000070: a6b1 6a2a 7579 e3bf cc81 d365 5609 d93f
00000080: 4010 4a49 ecd4 f5bf c7e7 5f08 d7a1 00c0
00000090: b644 d73f c2ec f9bf 6e4b 863a 03a6 eebf
000000a0: 94a1 d869 935c febf 8ef6 548f bdd7 ffbf
000000b0: ec6d 2485 9ba1 eabf beeb a10b 4053 febf
000000c0: b903 5f33 a408 04c0 3942 b746 b13b e0bf
000000d0: 52c1 acf0 f4aa f6bf 857a abfc a828 08c0
000000e0: 28b0 0507 0dc0 dfbf 82ae fd37 8d1c d6bf
000000f0: b198 d6f5 5c80 00c0 54dd d040 c71d e43f
00000100: b983 8d77 c926 e0bf 9823 1448 aa79 fa3f
00000110: c5b4 6aa6 664c 0bc0 28ea c6f8 fc0f fabf
00000120: 2cd3 a08f c61c d1bf 0b3e 6f42 c425 f0bf
00000130: dc00 6bcd 1a6f bdbf 34c9 85ac c6eb f4bf
00000140: 7670 7d3f 0ad6 fdbf 241e f77b ca73 ebbf
00000150: 4b11 b502 96bf 05c0 aad4 c28a 0f6a e9bf
00000160: 4228 27cc dd51 a5bf 26fd 485f 9202 f5bf
00000170: acce 8a22 d093 f5bf 98a0 30bd e209 e0bf
00000180: 546e 96e7 f67f d7bf 86ed f646 40ec e7bf
00000190: 092c d5b8 1b7b ca3f 0d49 4c93 600f 00c0
000001a0: d972 0110 7b1c 03c0 92c1 c858 fa55 d5bf
000001b0: d4ce 9b00 d8d1 fabf 42aa b09c 0ba2 f7bf
000001c0: 46c1 558a f209 d53f 44a5 f7bb 5ecc f7bf
000001d0: a517 8f84 f6fc 00c0 60ce 88ff 3ec2 ecbf
000001e0: b0f9 e131 fa5b d3bf 30d5 b467 7e9e d93f
000001f0: 68e5 61a2 230c fabf 5785 615d 5ae9 c93f
00000200: 50ff 80fb 2d16 ffbf d60c 155e 29ab e8bf
00000210: 4421 8be4 98ec fbbf de0c 93e1 ebf2 c53f
00000220: 627b 0120 3414 b33f 72b6 41d9 f51b b43f
00000230: fe93 54b3 95f5 edbf 4843 f22a c6f9 bbbf
00000240: c4f5 3230 baef f1bf 3f2c f863 099a c83f
00000250: 5645 a192 be79 10c0 72cc 184c 67bb edbf
00000260: a639 cee5 1929 f5bf 46a2 1531 4c51 f5bf
00000270: 9c49 d45a e61c f23f 1433 136d 1341 f5bf
00000280: d692 dc1c 45f7 fabf a4ae eb3d 3878 f7bf
00000290: 26b9 b0af ddfd d53f 96bd 6870 f21d d3bf
000002a0: c872 d37a 25a9 d6bf e013 7495 82dc e8bf
000002b0: d6de 1c98 2b9c f1bf 7c62 dd57 1b67 f2bf
000002c0: ec27 35c4 70f2 c23f 1322 b9f1 2d9b cc3f
000002d0: 966a c56f 9b03 e9bf 4622 3c22 c9ac fbbf
000002e0: c49f 59df 1718 fcbf 4234 6617 1c34 d4bf
000002f0: 401b b2dc 43a8 e3bf a485 b974 6eda e3bf
00000300: 976c eb75 50fb d0bf 748e c3c1 9ce8 e8bf
00000310: 9aa4 f832 8b71 f4bf 7bf3 06d6 6f99 02c0
1.2944501205046484 1.4176318977040152 -1.9896048203575165 -0.8675354133553355 -1.573741161440939 0.21446112789269098 -0.8933891472639364 0.5020146411365675
-1.0914785506945939 -3.3198920704160844 -0.6460320995555988 -1.2525208306953939 -0.8009338849036436 -2.4272029828268216 -0.6085763767674066 0.3911949152370908
-1.364483152662629 -2.0790234236019134 -1.6203024381432392 -0.9577652113970154 -1.8976015219323914 -1.9901710127736894 -0.832227478068885 -1.895324750365702
-2.504219437920679 -0.5072866803330448 -1.4167374993667932 -3.019853567107307 -0.49609685598147957 -0.34549265354028347 -2.0626773077120437 0.6286350503859617
-0.5047347388282254 1.6547034087727521 -3.412305164462483 -1.6289033620693179 -0.2673813250178678 -1.0092203707789646 -0.1149765731343026 -1.3075625170864216
-1.864755867011835 -0.8578846379468286 -2.7185478412158424 -0.7941968641449837 -0.04164021603681124 -1.3131278726649014 -1.3485871648125949 -0.5012067504039974
-0.3671853314969884 -0.7475892435099218 0.20688196682962737 -2.0075084216742938 -2.388906598133286 -0.3333726756127585 -1.6762313865446474 -1.4770618553835821
0.32873214253688265 -1.4873950331187453 -2.1235170704048465 -0.8987116804987174 -0.30248885032042505 0.40029869201255774 -1.6279636710226786 0.2024338680230737
-1.9429149460192612 -0.7708937490027903 -1.745262997386889 0.17147587313056695 0.07452703267470676 0.07855164102667248 -0.9362286093279406 -0.10928000019545181
-1.1210271723533518 0.19220082646674716 -4.118891039937202 -0.9291264044062599 -1.32253446357536 -1.332348052727086 1.1320556209580905 -1.328387666773044
-1.6853686454207284 -1.4668505114340542 0.3436197486615974 -0.2987028215165649 -0.35407387728427553 -0.7769177359592696 -1.1006275121598512 -1.1501725609033704
0.1480236967129821 0.22348570158853018 -0.781690328887026 -1.729684003572531 -1.755882141553216 -0.3156805256374505 -0.6142901716674274 -0.6204139976290901
-0.26533900752628753 -0.778395060010054 -1.2777206412377269 -2.3249203415747934

l2w f8 [100, 10]
00000000: 18d9 3ea2 1eb5 edbf 82ff d2d2 85b7 f73f
00000010: bc83 b104 f1c5 d83f e30f 10f9 b342 f2bf
00000020: c2d1 eb6f 1d45 873f ba53 0080 1f56 f9bf
00000030: 9f1d c09d f64e f53f 866b c854 749f eb3f
00000040: 0a6c 20d0 35af c63f bada a3d2 5ced e1bf
00000050: d200 3ad9 84de a3bf bab1 7c9f c6ea ad3f
00000060: 7db3 7c6b d06b a0bf 7465 25dd cabc c13f
00000070: 380f 152f c9c5 b73f 9f38 c3f5 5024 a23f
00000080: 27b4 9f69 7b9d b23f d28e 1b26 9c83 a1bf
00000090: 1ebf 9c45 e135 c43f 95e2 b3e4 ac12 9c3f
000000a0: 05a6 d4f5 8cbc e2bf c3cf 62b1 37d0 e13f
000000b0: 6731 d7d5 161a e43f cd75 f3ba e35c e0bf
000000c0: 4a77 5462 8301 d13f 6a67 162c 734a ebbf
000000d0: d77c 49f1 e434 d33f 8cfb cdbe 5302 a03f
000000e0: 0c37 2274 2fb9 e33f cf85 aaf7 f044 e4bf
000000f0: 9fb3 5f25 ff19 e3bf 9f68 3505 7f29 da3f
00000100: 81dc cbca b9df f9bf d4ce 0fe8 48bb ef3f
00000110: 734f 263d e19a e63f b4c2 f89d 9006 f6bf
00000120: 8dfd 77b8 b817 ecbf 63af e981 bb30 e53f
00000130: c101 11a4 2a86 c13f 1ace 8323 542f f03f
00000140: cdf0 298b 6cc0 ee3f 9c75 06f8 df2d d0bf
00000150: f1b4 4152 3536 fc3f ef08 567b f8c7 d93f
00000160: 44c3 74a6 87fc f4bf 5bf1 7a8c a7cc e83f
00000170: c1e0 cfd2 c345 d93f ba52 91f9 4003 eabf
00000180: 131d 1295 167c d53f 26a4 7206 e7ab febf
00000190: 6472 3aab d57d c8bf 66f2 2416 b64e d9bf
000001a0: 65fb c6b8 2aa0 ddbf 8ede 3617 7a50 f93f
000001b0: 2fd0 417a e590 02c0 d74a b962 54a6 f83f
000001c0: 6d21 c2de aada e63f 15ef 7eec a96d f13f
000001d0: bfaa 1bfb 7218 b5bf 9aa4 a4bc c547 f5bf
000001e0: 4c88 c8fe 0c18 edbf 43a1 fda9 0817 c8bf
000001f0: 4203 8290 146d 0040 8c99 3b94 4692 d1bf
00000200: 484e e5af 6cd5 f1bf 051c 1efb e8d1 d83f
00000210: 1834 cbb5 49dd f63f 9274 4ac9 377d c0bf
00000220: de02 a17f 94a6 88bf 7332 ec72 1b25 f0bf
00000230: 8c53 7d8d 9013 d8bf 2ae4 8f6e 2bad f53f
00000240: 4a4e 2e9a e4e3 eebf 73cd 2620 93d5 f3bf
00000250: c6cb 0e82 dce9 e0bf f788 aa76 6cf0 f03f
00000260: ba3c 7afc 4ecb e1bf 32fb bb92 891f f63f
00000270: 34f7 fe6a a850 ebbf 538e f37c c9a0 cc3f
00000280: cf54 77b3 3a71 c63f cd3a c473 e684 e2bf
00000290: 8e35 b902 da34 d6bf d6a1 2aa3 e859 ddbf
000002a0: acbc e284 8b6d e33f 5f8c d0f6 1c4a ef3f
000002b0: 0e5c a094 1ceb e83f bd3b 07c0 e798 eebf
000002c0: 3f64 6968 490d ec3f 0061 2b14 fc77 eebf
000002d0: ab31 926c d68f e53f b9c4 148e 5e81 e3bf
000002e0: 2ce4 efcd 2f8f debf b341 6030 4143 a63f
000002f0: 5021 768e 4f9c ae3f 35f2 b972 e687 e0bf
00000300: 96c4 eb1d dee8 ec3f 8bb3 cfe7 ddc4 f8bf
00000310: a113 69a9 2e5b df3f 5685 d0ee 2bc4 e43f
00000320: 1f88 425d e854 e5bf a270 7f81 a6a4 ce3f
00000330: 4851 f11a 50f3 d03f e0a1 71ca b02b e63f
00000340: 6f10 0565 5da0 f8bf b458 0c62 c08a c13f
00000350: 6cc9 b069 8456 e73f 772b bafb f617 e43f
00000360: d60b f4d8 9425 b03f ddb8 c826 e14a edbf
00000370: 4645 f160 3c85 e13f 2577 8749 ff34 e3bf
00000380: 3f53 cab6 226b c73f fb9c 82b2 3970 b1bf
00000390: 51a8 6e08 f011 d63f 4284 5739 a3d4 92bf
000003a0: 0264 e338 4ec4 dc3f 60cd 749b fb59 adbf
000003b0: 990d 0a01 2ffc e7bf 9038 42c4 9c4d c83f
000003c0: 5d63 5343 0907 e4bf 7cda b70d 4808 eb3f
000003d0: ce38 2e1a 0aad f13f b65e e884 4c81 ef3f
000003e0: d478 4ec0 07f3 00c0 d74e 8df3 897f ecbf
000003f0: d70d 5f5f e7f5 f1bf 13c2 9c84 8803 ed3f
00000400: 350d 6d6d e60b e33f bcd7 13e1 75af e43f
00000410: 3ada 11dc 9223 f13f 7108 735f a1d5 ecbf
00000420: ce0e 2b8c 38e1 d63f 2ab8 c547 a0e9 e13f
00000430: 4d66 efd0 0aee db3f 6062 a0ba ccaa d83f
00000440: e686 2740 1117 e83f 9c72 836d face d0bf
00000450: a7fe 5562 2afe dcbf 62cb 2f17 0271 00c0
00000460: 5892 f39d 34b4 debf 629f f399 2fe8 c6bf
00000470: 731c da4e d77d cfbf 671d fb4a 2daf dfbf
00000480: 226b 63b2 9790 e83f c8bd 5eb6 176e e3bf
00000490: 6fe6 e84a d098 f43f e782 c020 b144 e63f
000004a0: 1c70 aada 6799 fbbf 4abf 3159 4ad9 eb3f
000004b0: 2506 60ec df80 f0bf c642 90d3 3671 f23f
000004c0: 9126 25f4 19fc e63f aabb 43ad a6e4 f0bf
000004d0: 193f 7b22 c295 e93f 82c7 dc19 cdfe dbbf
000004e0: b1bb dbd3 e9cb f43f 258d 5014 5356 ddbf
000004f0: 44de dcb7 b226 c9bf b41f 83b0 c863 ecbf
00000500: 8e1e 2114 d3cc e43f 6822 0c17 6ac1 eebf
00000510: 2675 c9e9 18be d53f 6f61 f3bd 166d ed3f
00000520: 37ec bd09 450a ebbf 341c 6fee d9ee f03f
00000530: d3aa 8534 0f83 e0bf 62f7 9a68 c0e7 eebf
00000540: 3ee9 2039 5df4 b6bf 65ce d99c b60d d73f
00000550: 7247 5f2a 6c51 f03f cf87 32a3 38d8 e03f
00000560: ff42 4551 a3ba df3f 5ee0 af9e 67c2 da3f
00000570: e771 77b0 e70c e9bf 142a 8352 1472 acbf
00000580: 117d 0180 fa94 e9bf c82a 01e4 3d1b e53f
00000590: 70e4 bb52 1603 f4bf 2701 af9d a61c d4bf
000005a0: be1a 4d2a 0e44 e1bf c765 f525 1f8d e03f
000005b0: 7a62 d75c f053 e53f 8b8f a61e aec0 ed3f
000005c0: 6822 76ed 62d2 f03f 6882 a6b3 1048 01c0
000005d0: 6f16 878f 3acc e7bf 1d69 be99 4a8f e33f
000005e0: 9472 ed63 7fd7 e5bf fb5a 16e7 0530 cd3f
000005f0: b960 983b e2ea 903f c1b7 8061 3780 e5bf
00000600: 6eab 42ca fdce 90bf d71c 32fc 552a d83f
00000610: 216d 9e3b 9c9f e5bf 1dba 393f 0ab1 c53f
00000620: b60b f660 45d5 a63f 7574 60b9 abd3 b33f
00000630: e4bc 69f5 fcf2 e83f 571d d235 e21b cb3f
00000640: fa45 4af9 8f34 f03f 3090 1c82 c361 dbbf
00000650: 3da1 eccb 0879 f13f cedd 6192 278d fabf
00000660: 78b4 10c7 19eb f53f 6f81 a279 d894 f9bf
00000670: 4e6e 3d71 60e7 e9bf 0490 08fb 4506 e13f
00000680: 5918 9c70 29b5 d8bf dba6 04c8 8ded eb3f
00000690: 0107 7902 0ddd 96bf 4bb9 54c5 a0fc e53f
000006a0: cc17 5416 7591 ed3f cd07 0797 09a1 e93f
000006b0: 7a84 8445 7f9b d4bf bc84 69e6 b462 f9bf
000006c0: bfce c798 073e e1bf 28a7 17ab 4ab9 f13f
000006d0: 04d2 6876 fd02 6fbf 786e f53a 6d49 eabf
000006e0: 6e3d 2211 ca58 ea3f 7a3c 7377 9df6 bebf
000006f0: 8558 3da8 cf02 f9bf f791 dc68 69d5 d9bf
00000700: b6a8 eb84 b2c5 e43f 52ca baee 561f dd3f
00000710: 7e78 44f7 6a02 f13f d7f6 c21e d222 df3f
00000720: a1d5 3383 f3ae edbf 0011 3fc1 1f77 e5bf
00000730: 8994 fa6c 6c97 f03f b6d1 dd5f de1a b9bf
00000740: def9 1f23 6f5f f03f 10dc 5784 b66e f7bf
00000750: aeb0 303e c72f c7bf 36b3 4c3a c4f0 f0bf
00000760: 7c56 d33c d1db db3f 53da 78bf 3057 eabf
00000770: b621 26f2 3134 f13f a236 ea14 313d 7a3f
00000780: 6d97 0368 1a95 fb3f 2782 5850 1f62 d1bf
00000790: 45d5 7311 79e0 d3bf f882 c7db 3303 a53f
000007a0: 982e 47c8 822e a83f cfa8 2c3a eb51 f6bf
000007b0: 1660 c552 416c 98bf a49e c91e 7c73 da3f
000007c0: 08d9 986c c960 a73f befc 39a3 2241 c9bf
000007d0: a96e 145b e5d7 f13f 1f9d 4a5f 2bc0 e5bf
000007e0: a6ee 8b19 c3fc c1bf 40e2 3a58 dcda e7bf
000007f0: ee4a a5b8 ed30 e03f 46ba f338 b365 b9bf
-0.9283593338830398 1.4823053584404708 0.3870813890298981 -1.1412849167836547 0.011362295129836112 -1.583526134495726 1.3317781602980643 0.8632146507182916
0.17722199118074428 -0.5602249254287337 -0.038807059780994316 0.05843182274688581 -0.03207255661104733 0.13857398794315723 0.09286172294110606 0.035433320999446176
0.07271548584658714 -0.03420722928220034 0.15789428614652307 0.027414990862754413 -0.5855164338474316 0.5566671814508414 0.6281847168516322 -0.5113390590083157
0.26571735956701004 -0.8528381215175902 0.3001034122771222 0.03126775459440187 0.6163556354747199 -0.6334156834820365 -0.5969234209020334 0.4087827254167084
-1.6171205445987484 0.991611912961583 0.7064062303856943 -1.376602761342082 -0.8778956988243621 0.6621987855300911 0.13690693865829753 1.011554850320755
0.9609892576259199 -0.25279998036588736 1.7632344449187338 0.402830238767037 -1.3116528036300261 0.7749822372202674 0.39488311373817103 -0.8128971933716322
0.33569874341670064 -1.9169683696620807 -0.19134016857869363 -0.39542915499240505 -0.46290081066756833 1.5821476847467326 -2.3207501937231636 1.5406078201673858
0.7141928053616035 1.0892733801001147 -0.08240431433265892 -1.3300225609657788 -0.9091858841168317 -0.1882029371292991 2.0532618798901305 -0.27455296016560093
-1.1146056052138125 0.38781189463810534 1.4290253735846417 -0.12882134750990254 -0.012036476273466542 -1.0090593804517567 -0.37619413201655827 1.3547777479964318
-0.9653189669938425 -1.2396422630234525 -0.5285475292388291 1.0586971888920382 -0.5560679370118102 1.3826995593842182 -0.8535959329380831 0.22365683175222503
0.1753304840373517 -0.5787231694283378 -0.3469758059116764 -0.45861259397727616 0.6071221919463787 0.9777970142935252 0.7787001517161813 -0.9561651945640431
0.8766219176569691 -0.9521465677198933 0.673808300068733 -0.6095421576520926 -0.477489424810815 0.04348186221625685 0.05978630651503869 -0.5165893784283698
0.9034262260812678 -1.548063188088437 0.4899403242491705 0.6489467300745371 -0.666614706180784 0.23939973185668345 0.26485064154737303 0.6928333238584479
-1.5391515680394396 0.13704685962210805 0.7293111862439168 0.6279253880069139 0.06307344719611704 -0.915390563726557 0.5475141423614012 -0.6002193866840783
0.18295701909360138 -0.06811867340239879 0.34484482596838456 -0.018389273047322748 0.4494815402554765 -0.05732713959369096 -0.7495341320322267 0.18986854155486244
-0.6258589091258774 0.8447609203274875 1.104745962398329 0.9845335574963971 -2.1186671279857396 -0.8905687100290959 -1.1225351071778868 0.9066813078007406
0.5952026498056627 0.6464185138745431 1.0711849781488483 -0.9010779251332349 0.3574963921384836 0.559768810444216 0.43640394595931725 0.3854247877621102
0.7528158429160754 -0.26263294882463994 -0.4530130348502816 -2.0551797687016213 -0.479748872994866 -0.17896075265093275 -0.24602786398120066 -0.4950669510112306
0.7676504596850899 -0.6071890413203898 1.2873080183184376 0.6958852424323511 -1.7249525586730732 0.870274709899584 -1.0314635499384022 1.1526401771736103
0.718274094434678 -1.0558230178973909 0.7995310471978626 -0.4374268295824707 1.299783542224514 -0.458393831099061 -0.19649347284006258 -0.8871806571487384
0.6500029938842589 -0.9611101579803973 0.33972761946445684 0.9195665082907406 -0.845003623034592 1.058313304312617 -0.5159984613249783 -0.965789989764499
-0.08966620106449327 0.36021199529134257 1.0198785452998576 0.5263941943596765 0.4957664769799947 0.418115525214949 -0.7828253218281674 -0.05555785662871329
-0.7994358539689604 0.6595754101957363 -1.2507537109179587 -0.31424870871343774 -0.5395575357623199 0.5172267667177771 0.6664964497859522 0.9297705267567705
1.0513638759458903 -2.160188106078113 -0.743680267646324 0.6112416270073343 -0.68255586163612 0.22802804740486934 0.01652101029148476 -0.6719014076568258
-0.01641460940360722 0.3775839770173212 -0.6757336773329464 0.16946533286268642 0.04459587868316055 0.0774485900478384 0.7796616357062729 0.21178844097105795
1.0128326166053498 -0.42784202295502194 1.0920494046968792 -1.6594615667398673 1.3698976303087687 -1.5988392592772376 -0.8094942294805578 0.5320157912251493
-0.3860572433189922 0.8727482706646826 -0.022327616954732402 0.6870883802528537 0.9240060268500598 0.8009078931574948 -0.32199079312164935 -1.586598300979218
-0.5388219818109617 1.1077372248932509 -0.0037856054725813344 -0.8214632178819121 0.8233385405200531 -0.12095054785025808 -1.5631863185749648 -0.40365061989203305
0.649132976160465 0.4550378161758647 1.0630902918706222 0.48650029186306426 -0.9276063501881034 -0.6707915090887866 1.0369686371789462 -0.09806623306741966
1.0232993480745942 -1.464529530492431 -0.1811455777800623 -1.0587808873489855 0.43529158534997925 -0.8231433620156373 1.0752429446166452 0.006406013226877201
1.723902136139681 -0.27161391111624983 -0.31057573990195336 0.04104005868771837 0.047229849765782095 -1.3949997208060727 -0.02385046069807125 0.413298635545724
0.045660299784161806 -0.1973002717022378 1.1152089650922028 -0.6797081814919784 -0.1405261873950298 -0.7454663966410138 0.5059727293358642 -0.09920807018691233

l2b f8 [10]
00000000: 6041 e948 f869 c6bf e651 60ae 6264 e33f
00000010: 894b e52e 604c ea3f 8138 43c2 4f9d eabf
00000020: 2e0b e9a9 d1ae f23f ef3e 0fbb dbf2 a0bf
00000030: 2856 9188 8f12 ebbf 395b bbb8 bc08 e6bf
00000040: fe7c a84a edbc c8bf 9fc0 7be5 58c9 aa3f
-0.17510894355883533 0.6060040860925795 0.8218232074672055 -0.8317030710402521 1.167680419647421 -0.03310286196176359 -0.8460157077158259 -0.6885665519756464
-0.19326559205453714 0.052317407620536154
