tasks/task3/task3_model_test1.npz (npz, 610129 bytes, 4 tensors)

l1w f8 [784, 100]
000000 95 2a a2 81 7d 80 a7 3f 09 b0 a0 c6 ea 59 ae bf
       0.04590217788161969 -0.05927976298002597
000010 7e dc fb 9d 51 e4 7c bf 10 4a a5 82 d9 20 91 3f
       -0.0070536792916221485 0.01672687396905742
000020 54 ba 95 c6 fa 4f a7 bf af 5e 38 7e c8 4f a3 3f
       -0.045532070866887736 0.03771807232641088
000030 5d fb ba 4e 89 93 86 bf 7e 32 06 1b d4 8c b3 3f
       -0.011023590769921371 0.07636762294550611
000040 12 29 64 3d bd 66 b5 3f 51 d3 b0 f0 6c 38 9f 3f
       0.08359892605600219 0.03048868388232801
000050 31 e3 d1 66 10 fe a0 3f 8d b0 fa c4 bb 7c 76 3f
       0.0331883550179043 0.005490048860945629
000060 51 8d 0c 3a d6 9b 72 3f 0d 6d 2d 24 4e 0d 9a 3f
       0.004543148825891422 0.02544138046083071
000070 8d eb f3 61 41 b7 a1 bf e2 64 0c 49 ed 64 80 bf
       -0.034601252753382196 -0.008005002776871387
000080 8f 47 47 ad 86 26 ad 3f de ec 03 42 3d 4c 7f bf
       0.0569345556756523 -0.007641066826404612
000090 8a bc c3 22 d8 44 93 3f 4e a0 25 c4 76 5c 60 3f
       0.018817307588446165 0.0019972152378393898
0000a0 aa 7c 9e 46 d2 7f 70 3f 22 bc 17 d9 5c fa 99 bf
       0.004028149976789278 -0.025369120359695192
0000b0 8f b0 05 6f ca 4d a4 3f 6f d4 0b c8 78 43 7a bf
       0.039655996372716655 -0.006412002375090527
0000c0 63 18 0a b9 c0 c8 85 bf 4e fe 4d 96 f4 e5 94 3f
       -0.010636811873393442 0.020408460306042202
0000d0 03 34 91 45 cd 8d a3 3f 09 60 27 fb cd 31 a4 bf
       0.03819123720368369 -0.039442479046272245
0000e0 c5 9c 6f c5 ab 6c 11 3f 74 2b 77 8d 88 46 af 3f
       6.646917732632252e-05 0.06108500220178473
0000f0 d8 db 22 1d 52 13 89 bf 6c ab b0 a6 04 b4 55 bf
       -0.012243882669606451 -0.001324657957193688
000100 07 81 ef 05 6d 8d 9e bf 56 bf 83 11 32 d3 b0 3f
       -0.029836371886518467 0.06572258880237078
000110 83 5e 35 66 d6 89 b5 3f 09 28 a7 4d 89 b3 96 3f
       0.08413448329280908 0.022169251789627285
000120 88 94 83 8f d4 5a 8c bf 00 e5 f0 e0 c9 75 74 bf
       -0.013845120076846365 -0.004995144451691802
000130 c6 46 fe 23 a4 4e a0 bf c5 81 68 d3 17 b4 96 3f
       -0.03184998454447689 0.022171375540098532
000140 5c 35 8f fa a4 0b af bf 17 75 3f ab 1a d9 80 3f
       -0.060635715089669445 0.00822659335238511
000150 9b 4a be ba 1b 07 b1 bf 63 cd 51 49 51 50 9c bf
       -0.0665147143284152 -0.027650137043065636
000160 11 d1 78 c7 e7 c6 8d 3f 2c 4c 03 2c e5 63 96 bf
       0.01453953816881229 -0.02186544495709712
000170 82 6c 91 74 05 ae 99 3f ff 55 42 b8 8c 1b 99 3f
       0.025077901115178942 0.024519156214031664
000180 47 31 48 d6 05 a7 a0 bf 9b 42 c1 ab b8 ab a2 bf
       -0.0325242828440389 -0.03646638008706767
000190 3b 44 93 5d 29 93 a1 3f de 35 72 82 09 58 a8 3f
       0.03432587878490564 0.04754667012558021
0001a0 2e 8e b3 6c d1 df 8c 3f e9 44 18 5c d1 8e ae bf
       0.014098774080088718 -0.05968336343006248
0001b0 ee 90 15 e5 55 fb 7b bf 93 9d ab 43 4a 30 a3 3f
       -0.006831489111707818 0.03747779918722496
0001c0 ac 55 1b 4f 85 06 7f 3f 36 19 70 e3 f7 ea a1 bf
       0.007574578035663231 -0.0349957909711968
0001d0 a8 9a 35 24 2b 88 81 bf 6b bf 9d 00 3e 2b a1 3f
       -0.008560502092860148 0.03353303678056715
0001e0 3c f6 6a a6 52 84 ae 3f 32 ed ca 3c 74 17 a6 3f
       0.059603293242144834 0.04314769022081534
0001f0 21 ab c0 2e af f5 88 3f 0f d9 f3 68 04 16 86 bf
       0.012187355627323595 -0.010784182026764925
000200 e3 7c d1 3e 09 d9 a5 3f c8 62 1e 7a 1c bf 83 bf
       0.04267147914719673 -0.00964185950924569
000210 38 d8 fc b3 41 db a1 3f a0 ba 00 ec 8c cc 70 3f
       0.03487592050662197 0.004101324535482093
000220 00 af 93 f7 60 5c 9b 3f a8 8c 70 7d 14 33 a0 bf
       0.026719584570783717 -0.03163970977063829
000230 8a 49 6d 25 5a 36 77 bf 8e 74 d0 c8 99 4a 5a 3f
       -0.005667068608845924 0.001604700260265521
000240 0b fe f9 1c 2c 34 a1 bf 7f 01 97 34 ed db 76 3f
       -0.03360116819112243 0.0055808320843769845
000250 98 5f 7c 13 fc 1c 92 3f 29 22 17 00 63 39 79 3f
       0.017688692750283147 0.006158243866089688
000260 ae c5 b8 ff e3 70 54 bf b5 ae a2 f3 5f 78 7c 3f
       -0.0012476183463941792 0.006950735865909931
000270 72 39 d3 0d 28 0f 97 bf a0 62 69 21 c4 5e 95 bf
       -0.022518754810158588 -0.020869316615377387
000280 b7 02 88 6c a6 3d b4 bf cd da 90 8f 2f 1c b4 bf
       -0.07906570577325565 -0.07855508093858106
000290 4f cd 03 40 a0 84 ae 3f 25 fa de ed 69 09 ab 3f
       0.05960560590201657 0.05280619648646149
0002a0 55 fc 5e 89 56 91 ae 3f 3d fb a3 34 02 b6 b5 3f
       0.059702591198850165 0.08480848107499823
0002b0 9f 46 72 a8 aa 61 b1 3f 8a 2e 9b 4b 37 f7 a1 3f
       0.06789652454815574 0.03508923337866772
0002c0 9c 7e ef 71 d0 74 86 3f 83 31 9e 3f dd 94 8f 3f
       0.010964992978130632 0.015420654777493997
0002d0 d9 db 6f 3c 63 e0 b8 3f 71 2b 3c c5 82 6c 91 bf
       0.09717388368140635 -0.017015498436232904
0002e0 3b df 3b 70 9b 46 65 3f 41 74 9c 7b 29 ce 9a 3f
       0.0025971446901812668 0.026177070779443538
0002f0 f4 29 ce db 40 91 b0 bf 2b e5 78 ba a9 35 a4 bf
       -0.06471639028874404 -0.039471916210866397
000300 a0 84 01 7e 4d 3d 6c 3f 29 3a c8 c6 0e 96 8f bf
       0.003447200157140687 -0.015422931138371858
000310 07 25 cc 22 94 f3 a1 bf 4b 5e bd 4f 46 35 92 3f
       -0.035061482665762304 0.01778135167782428
000320 f4 fe 6b 96 b9 a1 7f 3f 24 a7 04 1c f2 d7 90 bf
       0.007722592307572763 -0.016448767623990737
000330 52 f9 47 c3 d7 ea 9c 3f 2f 2e 8c cd a0 7a a7 bf
       0.028239604276671777 -0.04585745343328217
000340 01 ef bb d2 c8 e3 97 bf 0c 1d bf a8 2b c1 44 bf
       -0.023329866277875592 -0.0006333792857668176
000350 9e 9b f1 f0 a1 a5 94 bf 1a d2 7b ac 6b ea 98 bf
       -0.020163088160554225 -0.02433174362427524
000360 0e 75 06 68 69 66 7d 3f e7 99 5c 17 bd 92 a2 bf
       0.007177745574521012 -0.03627577696015632
000370 5a 37 3c ee 59 55 84 bf 54 69 25 5e 81 32 a2 bf
       -0.009928419669019629 -0.03554157518620352
000380 90 3e 9c ef e9 9e 91 bf f9 13 57 4e c0 d8 95 bf
       -0.017207770585683735 -0.02133465269232102
000390 ae 08 c4 a8 17 23 71 3f b6 a9 e0 78 be e3 7a bf
       0.004183857363616079 -0.006564849883981363
0003a0 e1 27 be d1 e6 99 9a 3f d8 2f 53 53 4c 29 a4 bf
       0.02597771315735276 -0.039377579852583444
0003b0 2c 6f ba b3 51 36 33 bf c1 46 5c 4c 86 7b 9c bf
       -0.00029315466574940624 -0.0278149589640353
0003c0 68 90 ad ed bc cd ac bf 25 f8 81 5e 41 a1 ae 3f
       -0.05625715638487422 0.0598240306726299
0003d0 c9 be 74 d1 0b a8 88 3f 2f 7e c7 14 65 33 9b 3f
       0.01203927262267203 0.026563243287340107
0003e0 2a ca 18 d0 7f c0 94 3f 9f 76 c1 a9 ce e1 90 3f
       0.020265576435301615 0.016486386405054728
0003f0 62 49 71 3a c0 02 96 3f 42 70 da 31 46 49 86 3f
       0.021494868819283204 0.010881946941758373
000400 e9 dc 52 eb d6 70 a6 bf b2 31 89 ac 85 00 a6 bf
       -0.043829647279773294 -0.04297273379470158
000410 5b e4 71 ba bd 0a a1 bf 95 1e c6 0f bf 09 b3 bf
       -0.033285073289285726 -0.07436746726136285
000420 e7 7f 21 93 a2 92 63 bf bd ed 34 40 d5 fc 89 3f
       -0.0023892569816297174 0.012689271947798337
000430 71 75 14 2f 97 0b ab 3f 7f b4 89 66 6d 83 81 3f
       0.05282280397134798 0.008551459018429462
000440 52 b7 51 91 60 06 b0 bf a8 8a 1f e0 7e b1 a1 bf
       -0.06259730861503712 -0.03455730901602766
000450 76 a8 82 07 d4 91 a3 3f 8e 67 f8 5c ad fd a0 3f
       0.0382219561737011 0.03318540344135022
000460 5e be 8d f3 28 22 a5 3f 51 07 26 63 82 bf 73 bf
       0.04127624486033875 -0.004821309399973676
000470 77 35 0d 67 44 7e a5 3f e1 cb 95 6c 98 e6 90 bf
       0.0419789672656447 -0.016504651668082352
000480 7b de 50 05 a9 28 88 3f 1d ce cd e3 fe b7 a5 bf
       0.01179630324814628 -0.04241940050897262
000490 4d 4f 48 bf ec 8d 67 3f 76 f7 89 e4 9d 69 8d 3f
       0.0028752922028249307 0.014361604248957365
0004a0 10 05 04 bd 42 82 a0 3f 95 ff c0 b6 be 47 a2 3f
       0.032243810246663895 0.03570362072832648
0004b0 82 b9 03 3e 45 f5 92 bf 62 45 ac e1 e0 21 a7 3f
       -0.018513757619922362 0.0451803470115333
0004c0 df 31 4c be ca e0 84 bf c8 13 7f 69 e2 77 9c 3f
       -0.010194381649420712 0.027801072777737607
0004d0 79 80 0e 9e d8 4c 96 3f b0 9a fd fe fc 60 97 bf
       0.021777519843113134 -0.02283091837252965
0004e0 f6 62 9b 78 dc 85 84 bf 2b d8 40 a5 cf db 9e 3f
       -0.010020945006020448 0.030135387860546963
0004f0 64 71 f7 cc a5 4e 74 3f ca 03 01 cf 14 a7 a0 3f
       0.0049578167522351425 0.0325247290315996
000500 fa bf 6c 6c 57 4f 75 bf 20 22 cb ea 13 5d 8b bf
       -0.005202619074040621 -0.013361125567272814
000510 02 1f 25 a7 a3 92 8f bf 65 0b e1 33 d4 bd 85 bf
       -0.015416410959587793 -0.010615976174568062
000520 99 2c 3a 05 96 a4 b7 3f d5 64 88 9c 64 2c ab bf
       0.09235513332002866 -0.05307306681442873
000530 f7 7a 97 20 bd 7a 9e bf 49 b7 01 15 c0 cc ad bf
       -0.029765086282959676 -0.05820274597577552
000540 dc 46 45 a2 45 47 ad 3f 55 61 83 4c a7 ad a0 3f
       0.057184387262749076 0.03257487114905425
000550 62 d6 ec 88 08 a8 a1 bf 91 74 ae b8 81 01 a0 3f
       -0.034485117640014065 0.03126149539387158
000560 70 15 53 85 41 b9 84 3f 43 22 b2 c0 93 f2 8c bf
       0.010118972665064091 -0.014134554212675293
000570 02 5e 48 9f 60 11 b0 3f 86 e9 4e 89 ae c4 57 bf
       0.06276515854585088 -0.0014507011849063957
000580 42 d6 6c ed 8d ae a5 3f 32 67 96 70 44 76 8f 3f
       0.04234736941581875 0.01536229580488033
000590 c2 8f a0 f4 03 97 b2 3f 74 75 da a1 f8 76 84 bf
       0.07261681291907876 -0.009992544593212506
0005a0 6d 1a 84 98 24 87 b6 bf 01 55 97 c1 40 cd 88 bf
       -0.08799961780105443 -0.012110238941128506
0005b0 9b 8b f8 ee 93 e7 9e 3f 20 63 9c 3b 0e da 93 bf
       0.030180274448990834 -0.019386503589973292
0005c0 b9 d7 01 01 ad 3d 96 bf e9 6c 9c 65 fc 94 a4 bf
       -0.021719649492716295 -0.040199172404948254
0005d0 5d b8 52 b9 35 64 7a 3f 75 11 4f 35 c2 60 a0 bf
       0.006443223818832858 -0.03198820973151132
0005e0 4f b7 7f be 6d 97 a4 3f fb 17 54 79 82 5d 88 3f
       0.04021780920434869 0.011897105529452992
0005f0 a9 3f f5 6b 07 76 98 3f 8c 81 44 c9 42 ce a6 3f
       0.023887744869454917 0.044542395657347716
000600 45 94 05 39 be c3 9b 3f fc 82 29 04 0f bf a3 3f
       0.027113888006528936 0.03856703687484317
000610 2e 24 2a 25 a2 0f 7f 3f 77 f1 ce 71 54 a2 a1 3f
       0.007583268527590765 0.034441603558181315
000620 ab a2 de 52 57 6c 93 3f 27 06 ad 52 56 dc 7c 3f
       0.018967976029360994 0.007046067427667369
000630 e7 05 83 ad 32 29 95 3f d4 ae 60 9e a2 b6 7f 3f
       0.02066497024566685 0.007742533902312682
000640 cb 2f eb 8e 15 ab 93 3f 7d 99 b4 93 58 df 91 bf
       0.019207321975770058 -0.017453559890009174
000650 60 e7 fc 00 95 77 6d bf 17 21 f3 6d b3 c9 b4 3f
       -0.003597060225641366 0.08120271143264222
000660 38 dc 14 a7 49 56 87 bf 0b b1 bb 72 c6 0c 9d bf
       -0.01139504948751667 -0.02836904597545335
000670 b6 c9 62 23 9c d4 04 bf 6e 44 1b 0e 8e 82 53 3f
       -3.973103996325908e-05 0.0011907946831579935
000680 e1 af fe 8c d0 b9 92 bf e5 d3 56 cc 0f 93 78 bf
       -0.0182869516426506 -0.005999623977392486
000690 b2 57 99 47 a3 68 93 3f 68 cd 80 11 1d 59 8b 3f
       0.018953849072509583 0.013353564354565875
0006a0 92 04 0a 06 02 b1 89 bf b4 07 74 6f 5c 38 80 bf
       -0.012544647034930887 -0.007920000220568692
0006b0 a0 f1 b6 f9 39 21 a0 bf 24 dd f8 f7 ec 71 a7 bf
       -0.031503497822515714 -0.045791058797869405
0006c0 49 6b 21 cd 94 aa 92 bf e6 a2 6a 00 81 c6 9f bf
       -0.018228840847182046 -0.03103066983263405
0006d0 1d 95 e8 4e 76 8a 83 bf 56 bd 2d 15 1d d0 93 bf
       -0.009541439326378904 -0.01934857789768548
0006e0 da 42 7b 58 7d ff b1 bf 4e 4b d5 84 80 5a 97 bf
       -0.07030471239273642 -0.02280617533444778
0006f0 c0 f2 0b e4 79 d3 a4 3f cd c8 5d b3 eb 70 92 bf
       0.04067593487522947 -0.018008883307125956
000700 6d f9 82 cf 59 4a 6c 3f e5 8f 39 01 cb 08 98 bf
       0.003453421984971053 -0.023471042585143116
000710 da 4e 58 4b f6 83 82 3f 06 0e a2 37 09 be a7 bf
       0.009040760206552024 -0.04637173465837567
000720 4b 10 ff f7 8d ea a8 bf ea 93 eb 84 31 e7 92 bf
       -0.04866450931834317 -0.018460057962233302
000730 3f 29 fb 17 3b f0 a3 bf a6 18 fb 78 d4 07 6b bf
       -0.03894219081628813 -0.003299632058630558
000740 16 a7 ec fc 44 e8 5d 3f 60 c1 fb ee 96 01 9e 3f
       0.0018253968916703326 0.029302938782110544
000750 08 f3 cf 52 62 cd a9 3f 48 7b ae 8a b2 e8 80 bf
       0.050395081147121046 -0.008256335122323613
000760 20 be 12 0c 51 22 68 3f bb 48 92 6d 1b 62 91 3f
       0.002946050925480184 0.016975811541279678
000770 a6 ea e8 51 3f 9e 94 bf 69 f1 e8 fe 93 62 65 3f
       -0.0201349157089036 0.0026104822675547157
000780 fa 48 1f af 47 d5 a3 bf a4 95 13 a2 e6 28 b3 bf
       -0.038736572386953896 -0.07484284836717464
000790 79 91 a0 d0 17 ac 6e 3f 70 85 ea 7f 0f 34 a0 3f
       0.0037441697250121778 0.0316471904418546
0007a0 13 dc 7c cf f8 1b 83 bf 13 54 3a d9 78 9d 97 3f
       -0.00933069594576178 0.02306164575437115
0007b0 2e b5 4d 16 9e 9e a4 3f 68 33 bb 01 cd a2 8f 3f
       0.04027265569934922 0.015447236647924092
0007c0 97 da 7d 18 b3 eb 7a 3f 76 3a 51 0f a3 f7 80 bf
       0.006572436897718823 -0.008284830002734039
0007d0 47 f2 06 8b 00 f7 88 3f 57 8a d1 cf dc a7 91 3f
       0.012189869158526835 0.0172419072954518
0007e0 cb 01 32 51 08 25 b6 bf 5e b1 88 09 42 92 ae 3f
       -0.08650257093723394 0.05970960966473869
0007f0 86 4c 19 93 72 68 9e bf db 60 62 db 59 30 7a 3f
       -0.02969531081027956 0.006393767360485659

l1b f8 [100]
000000 4c 64 8a 5e cb 1e f1 bf c2 e7 76 b7 3b 51 00 40
       -1.070018166827384 2.039664681736185
000010 24 3f 0c 95 fd fa c6 bf 98 e4 a6 29 4e 51 bd bf
       -0.17953462388731467 -0.11452187077419962
000020 fe 68 a6 8b cf 3b ed bf 20 a5 85 17 2d 80 fa 3f
       -0.9135511138477168 1.6562930029707061
000030 57 c5 75 5b ff 22 a3 3f 64 83 64 06 cc 7e ee bf
       0.037376384653621635 -0.9529781460624744
000040 02 0f 34 b5 df d1 f0 bf 02 85 51 62 88 10 f9 bf
       -1.0512387350326553 -1.5665363159717463
000050 e0 70 6d 59 43 e9 b8 bf 72 ee 69 fd 51 55 d1 3f
       -0.09730931218422567 0.2708325361961449
000060 b4 3a 8a ac 47 4c ef bf 76 30 b6 1f 8b ba ee 3f
       -0.9780615205689487 0.9602714175575915
000070 d8 32 db e2 77 02 e3 3f f0 f1 71 8b c7 7a e3 bf
       0.5940513067995097 -0.6087377284562177
000080 c2 31 f5 67 e8 5d e3 bf 3e cb 9d f4 60 cc e9 bf
       -0.6052133589196773 -0.8061985757507057
000090 92 da 27 b2 3c e4 f5 3f d7 46 4d bf af 3c ff bf
       1.3682219466406065 -1.9523160431603424
0000a0 53 4d d3 32 a0 36 e2 3f d4 13 10 b0 75 82 f5 bf
       0.5691681854899947 -1.3443505170300698
0000b0 b6 eb 79 84 c0 04 ed bf 60 d2 5d 1b a9 14 e6 bf
       -0.9068300807406249 -0.6900220427037986
0000c0 4b 20 cb 6c c4 52 e0 bf ef 19 ea b6 ff 63 c2 3f
       -0.5101034283516211 0.14367672377939253
0000d0 99 e0 5e 3e 59 e5 e0 bf 8a 41 fa 81 b4 49 cf bf
       -0.5279966562439028 -0.24443680140076324
0000e0 bc a2 0b 4c e1 c4 d5 bf 32 9d eb 69 2c a1 ee 3f
       -0.3401416056281439 0.9571744984395194
0000f0 f0 d4 bd 87 ff 97 f9 bf 64 97 b5 b7 ef 55 eb bf
       -1.59960892700229 -0.854240282828624
000100 04 1d 8b 69 e2 2c bf bf ec 63 41 54 12 b6 fd 3f
       -0.12177863194220967 1.8569510737636348
000110 ab e2 a5 c3 20 3a e0 bf c0 4a ac 16 16 10 f6 3f
       -0.5070957013368419 1.378927315298526
000120 08 7f 20 35 54 9e d6 3f 52 ac 99 b1 72 51 df bf
       0.35341363132646153 -0.48934619277742286
000130 ce 43 ac 44 f4 67 d3 3f 36 74 ec fa 24 45 f8 3f
       0.3032198591836818 1.516880970163823
000140 82 2e 45 4d 65 77 d4 bf a4 6f 03 36 c9 28 e6 bf
       -0.31978733583375896 -0.6924787573766378
000150 e8 5f 8a 89 68 58 f0 3f c0 c2 06 49 f8 78 f9 3f
       1.021584069507293 1.5920336582750423
000160 7e b4 49 e4 b8 7f a5 3f 8a 27 3b 08 42 64 df bf
       0.04199006830899864 -0.49049425891700393
000170 88 2a 10 28 20 a4 e2 3f 13 c7 9f 8a 2f c9 a2 3f
       0.5825348646624926 0.03669117514790634
000180 92 e6 3e a9 96 28 8e bf 29 9f 98 36 66 fd a0 bf
       -0.014725853958100363 -0.033183283009121496
000190 f2 a9 b3 fd be 08 e0 3f 80 ac e6 cd f7 80 fe 3f
       0.5010676341165079 1.9064863245974095
0001a0 c0 62 d2 a6 2c 3b f8 bf da 2d 38 a6 40 64 d6 3f
       -1.514446880004627 0.3498689292179883
0001b0 b6 4b 9c 8f 1a 4a f2 3f 0e ad 6d af a8 de c1 bf
       1.1430917367731417 -0.13960751119461928
0001c0 1a 89 c0 24 1b 5d db 3f aa 36 ee 1e 93 8b e4 3f
       0.4275577410609387 0.6420379261123419
0001d0 fe 36 54 90 bd 7c fa bf 48 31 3b 10 b5 29 dc 3f
       -1.6554542196130906 0.44004561028556965
0001e0 4a 3b 71 93 7c 01 f2 bf 74 ca 7b 81 e5 0e d2 bf
       -1.1253629455056449 -0.2821592106330748
0001f0 b5 e9 6f 8d ab 03 e0 bf de 04 54 c3 ea d5 e1 bf
       -0.5004480135387924 -0.5573629202846424
000200 ce cf db 2f e9 27 ee 3f 06 b2 7e 35 53 52 f1 bf
       0.9423719343890242 -1.0825988855023083
000210 66 a4 18 e1 05 71 f7 bf c8 3b 5e d7 0c db da 3f
       -1.4650934975454901 0.4196197608188723
000220 f3 18 40 b5 94 f0 00 c0 be b8 e0 35 38 e9 f4 bf
       -2.117471138018226 -1.306938372097235
000230 b0 03 7f e5 f2 0d c1 bf a1 88 da 1b ae 6d b0 bf
       -0.13323818403116894 -0.06417358570118604
000240 e1 20 6c 7e c5 e9 b0 bf 52 09 bb 98 3e 4b fa bf
       -0.06606706940158659 -1.6433702436484805
000250 a2 93 f1 71 19 0c ea 3f 40 b8 5b d5 d7 78 a9 3f
       0.8139769769155587 0.049750084681236206
000260 10 63 bb e0 d5 73 ea bf 27 e9 08 30 4f ae 03 40
       -0.8266400708481303 2.460111975929198
000270 1e 67 bd fa 77 80 f8 3f 49 c8 3e ca 29 c4 02 c0
       1.5313644213224005 -2.345782833138433
000280 8a 23 1e fe ab fc e2 3f d8 93 ce 94 59 fb dc 3f
       0.5933437312352094 0.4528411820595557
000290 9e af 01 ee ad d4 fb 3f 4a 78 64 47 c2 dc d8 bf
       1.739423684800364 -0.3884740540687558
0002a0 d4 a1 6d 9e 16 07 00 40 ea 4b 4d d4 04 16 e1 bf
       2.0034611108023714 -0.5339378496668108
0002b0 c6 7d 30 d7 47 22 de bf b7 d7 e8 fb 31 f6 ff bf
       -0.4708423234423801 -1.9976062622276751
0002c0 ee 56 38 b5 7a aa f9 bf 64 44 f0 e5 9b ab b5 bf
       -1.6041209296139942 -0.08464979518636678
0002d0 1a b6 3b 2f 0b b2 d3 bf d7 57 7e 9b 03 e9 c3 3f
       -0.3077419244062597 0.15554852573831
0002e0 10 b9 2d 63 dd 48 00 c0 4c 6b 01 0b fd bd fd bf
       -2.035578512986042 -1.858883898725895
0002f0 a4 cb 34 79 92 21 f8 bf 74 0e 2f d1 e0 45 00 c0
       -1.5081963286035966 -2.034120210884618
000300 32 43 90 4f 45 fb ff 3f 58 dc 04 5e b0 d4 da 3f
       1.998845396800061 0.4192315023569271
000310 48 27 2e a8 17 60 f1 bf a0 6e 25 6d bb dc f4 3f
       -1.0859600610296685 1.3038896811985197

l2w f8 [100, 10]
000000 5d 38 37 58 f7 0a c2 bf 43 d1 97 cb aa 8b e2 bf
       -0.14095966155440723 -0.579549214975977
000010 22 88 34 a6 d7 0f d2 bf 48 26 99 12 07 d2 e1 bf
       -0.2822169421289137 -0.5568881381270296
000020 10 27 b9 36 de 1e c5 3f 9a 4a 9f 44 e5 66 e5 bf
       0.16500451728853038 -0.6688104954030962
000030 fd 75 df 48 85 b1 ec 3f c5 cc 54 e8 91 9b e6 3f
       0.8966700003908837 0.7064904725761144
000040 43 5f 48 ab f8 c2 e5 bf 70 48 88 eb 6e 46 f0 3f
       -0.6800502152791313 1.017195625351203
000050 b6 8f a8 68 8c 3a d6 bf 98 90 73 14 e9 62 e3 3f
       -0.3473235151343447 0.605824031776609
000060 e4 0d 7d 5e 0c e3 ba bf 9e 00 7c 0d a4 60 e0 3f
       -0.1050269823727415 0.5117969764105685
000070 64 bd 34 7a ba dc d7 3f b9 40 4a a9 49 77 e5 bf
       0.3728471940439333 -0.6708114916273394
000080 8f 40 e8 8e 5f ed ca bf ce b3 95 be 2c 7b e8 3f
       -0.21036905744449938 0.7650359842642673
000090 7d a0 67 cc bd 0c e3 bf 20 86 f5 d4 8d 16 c2 bf
       -0.5953053467064958 -0.141313294395375
0000a0 08 74 91 62 52 af c2 3f 70 0f 46 a2 65 fe cc 3f
       0.14597539723300224 0.22651358054656212
0000b0 ef 69 a9 d0 d5 32 c4 3f 9f 96 ba 51 da d4 e0 3f
       0.157801367650634 0.5259830089823544
0000c0 f0 67 a9 4d ed 6b ff bf 00 7f cf 29 5e 89 d2 3f
       -1.963849357000523 0.2896342666917775
0000d0 aa 47 bd 5b 4e 2a e9 bf ed 9e 78 6c 1e 80 d3 3f
       -0.7864143173012412 0.30469475357902703
0000e0 82 6d e3 a5 ff c8 ea 3f 21 b8 10 c8 ef 52 cb 3f
       0.8370359649665462 0.21346852558912224
0000f0 2b 98 71 3d 50 5e cc bf 76 07 aa 00 3b 91 c7 3f
       -0.2216282176988796 0.1841195824854897
000100 fc 34 bf 1e 38 ea e8 bf 01 87 70 96 4c de dc 3f
       -0.7785912132764277 0.45106806460727006
000110 1a 31 da 34 6a 04 ee bf 47 ad 9a 88 40 fa ed 3f
       -0.9380389244338716 0.9367983501482876
000120 28 14 78 20 14 32 e8 bf 74 9a a9 19 e5 d5 e7 3f
       -0.7561131128464966 0.7448602200718839
000130 65 f4 9b 29 c4 62 e2 bf f8 1d d0 a9 34 9d eb 3f
       -0.5745564282111785 0.8629401508960077
000140 ea b9 dd 96 e0 3a eb 3f d7 90 2f 80 17 41 c3 3f
       0.8509371706584805 0.1504239440829511
000150 02 b9 21 06 34 04 b5 bf 52 6c f0 b0 37 57 e0 3f
       -0.08209538602543279 0.5106466728060559
000160 ea b1 55 6b 52 4a e7 bf 3c ee 9b 24 51 0c e8 3f
       -0.7278225036985166 0.7515035357495843
000170 da 2d 41 b2 45 15 d6 bf 85 a9 4a df bb bd d7 bf
       -0.3450483551757465 -0.3709554367620956
000180 0a a8 b5 70 fe 91 d0 bf 29 23 be 5e 7c 61 d6 bf
       -0.2589107609443323 -0.34970006229609624
000190 74 da e7 9d e0 16 b7 3f ad c3 76 ca 57 08 62 3f
       0.09019283156508512 0.0022012438455125322
0001a0 f3 7b 7f 4a a8 5d 64 bf aa 5c bd 67 6f 9a be 3f
       -0.002486065572142143 0.11954399378497507
0001b0 40 ca 57 01 8e 9e 52 3f fc bf 27 18 35 85 b4 bf
       0.0011364352006891926 -0.0801575836155734
0001c0 cf f9 62 d9 c0 64 a4 3f 85 b7 9e 8a 83 ba b7 bf
       0.039831186806157264 -0.09268972524907156
0001d0 d0 f9 f3 f7 12 bd b2 3f d6 aa 78 ec 59 40 b6 bf
       0.07319754174748216 -0.08691942237116321
0001e0 33 99 cc d9 79 2c e4 bf 39 db a2 83 d1 bf f1 3f
       -0.6304291967287895 1.1093306676900296
0001f0 df 62 0d 00 3f 7e f2 3f 47 5e 08 9a 2f 8d d5 bf
       1.1558218004267287 -0.33674230615858786
000200 ac e4 fd 32 37 78 b2 3f 9c 3a 75 22 b2 01 e3 bf
       0.0721468448154094 -0.593957011509548
000210 04 ab 24 dc 08 9e c4 3f 87 eb 18 78 e4 e3 cd bf
       0.16107283353024837 -0.23351722587707632
000220 f5 3e 18 3b a2 a8 e1 bf 3d 82 4e 45 b2 a5 db bf
       -0.551835170192105 -0.43198830383520087
000230 cd 7b bf 54 5e fb e1 bf 19 d9 ee 5e 8f ce dd 3f
       -0.5619346289857902 0.46573242445755764
000240 4f 58 9a 83 fc dd ce 3f c2 17 f0 bf 8d 70 e6 bf
       0.24114948678897227 -0.7012394665514352
000250 dd 40 e4 87 b4 d0 b4 3f 4e 34 9d 4b fd e9 e0 bf
       0.0813095886007917 -0.5285631634557235
000260 1b 30 51 06 10 1e b5 3f 90 65 28 b9 6a 36 f5 3f
       0.08248996881701524 1.325785372994094
000270 ab 40 59 e7 3c 65 ca bf 82 65 58 ee d5 06 c1 bf
       -0.20621453567810497 -0.13302110803560302
000280 de ce 8d 68 18 90 e6 bf 3b 2d 98 9a 4b b9 ce bf
       -0.7050897638386819 -0.24002976463848733
000290 83 41 a7 5d b1 8a d6 3f 02 e5 c2 05 fd 4f e3 3f
       0.35221513887247385 0.6035142052197957
0002a0 7a 42 b4 65 57 69 d8 3f ea 12 99 86 21 2f df 3f
       0.38142952854199275 0.4872516455109649
0002b0 0c 04 68 4c 0a b0 eb bf 52 29 97 9d 7a a1 b4 bf
       -0.865239285689428 -0.08058897349761665
0002c0 5b 10 17 23 86 11 c2 3f 2c e9 55 41 ea 75 d5 bf
       0.14115978921302283 -0.3353219640772689
0002d0 36 d5 19 11 fa ee c7 bf 74 cc 7b ac 9d dd ae 3f
       -0.18698049387936927 0.06028454523575358
0002e0 61 37 21 f3 33 73 c3 bf 8b 02 ad 05 dd c8 cc bf
       -0.15195321437425505 -0.2248798635210004
0002f0 41 4d 84 b7 ee e8 cc 3f 96 cb c8 63 7a 75 c1 bf
       0.2258585353925842 -0.13639764663966208
000300 5a 51 a8 f1 f2 51 d5 3f 99 c5 34 d1 a9 b6 a1 3f
       0.3331267700134696 0.03459673575197115
000310 ee ee 4d d1 01 28 c4 bf a9 b9 bf 6b b8 4c 93 bf
       -0.15747091979925848 -0.018847352577660157
000320 cf f6 96 bc e4 9d df 3f 20 12 b3 75 ad 5e e0 bf
       0.49401205460513337 -0.5115573214357632
000330 2d b0 a4 9d 32 35 f2 bf fc 5e e1 5c fa 56 cc bf
       -1.1379877241079257 -0.22140435729192365
000340 e9 18 82 4d 19 b4 98 3f 01 16 9d cc 4e 5e e9 3f
       0.02412452254841294 0.792762183795901
000350 e4 0c f4 20 68 f3 e2 3f de 95 10 d8 cc ec eb 3f
       0.5922127383822979 0.8726562709823005
000360 1d 51 7e 7a 89 06 ef bf 7a 4c 5d bf 09 af 9e bf
       -0.9695479767274581 -0.02996459227081203
000370 06 09 71 b3 e6 19 e4 bf 38 ee 0f e2 24 d1 b8 bf
       -0.6281617645948081 -0.09694128531548862
000380 32 94 09 22 46 4e dc 3f 8d 84 d8 23 a5 06 e6 3f
       0.44227746318785244 0.6883111667740579
000390 f4 4a e5 9d 03 24 d8 bf 1f cd d9 09 b9 7e e5 bf
       -0.3771981279325438 -0.6717190925977866
0003a0 80 5e 63 80 f4 44 e1 3f 55 65 43 5d 52 3b e6 3f
       0.5396673686581863 0.6947414228008407
0003b0 f5 14 d2 43 5f 1d e8 bf be 0d 19 9a 33 14 c9 3f
       -0.753585464918301 0.19592900299367771
0003c0 f0 76 7e c8 e2 a0 f1 bf f3 04 40 4b f2 a4 d1 bf
       -1.1017787772938696 -0.27569253300323665
0003d0 dc 8f 4f 95 d0 88 b0 bf 98 09 ac f9 8f 8a e3 3f
       -0.06458762784274036 0.6106643558890026
0003e0 d7 5b d4 a3 fa bc d3 3f 61 db 48 99 91 14 d4 3f
       0.3084093665979117 0.3137554165763757
0003f0 45 45 ad 82 d6 37 f4 bf 89 aa 77 2e 28 0e e0 3f
       -1.2636323074878686 0.5017281444136908
000400 51 f8 4e c4 81 3b e1 3f ec 44 1f 23 b2 32 db 3f
       0.5385140260839397 0.42496922902962697
000410 f3 96 1b d7 ad 6a e5 bf aa 08 5e eb 79 a2 e3 3f
       -0.6692723466228173 0.6135835263269389
000420 9c c7 66 41 d8 31 ef bf 19 14 ee 9a 7f 46 f2 bf
       -0.9748345639584275 -1.1422115375473878
000430 67 ed 40 bb 92 11 d7 3f 89 92 9b 4c 28 d7 eb 3f
       0.3604475811623246 0.8700143333667977
000440 18 4a 81 bf 88 48 d3 bf c9 e0 7c 01 18 2c d0 3f
       -0.30130213452972177 0.2526912703065248
000450 a3 10 f0 ed 85 7d e2 3f 32 61 42 1b 36 15 dd 3f
       0.577822651598144 0.45441963827171883
000460 70 d6 46 91 07 bf cd 3f b8 2a 69 43 7e 9e dd 3f
       0.23239225953664144 0.46279865820967414
000470 51 88 e0 c8 ac ce e9 bf d6 77 1b 55 b8 7e ca bf
       -0.8064788745289296 -0.20699218898420096
000480 a0 21 54 95 b9 58 ca bf 5d 15 d4 64 1a b9 db 3f
       -0.20583267013013273 0.4331727966931192
000490 4e 32 9a b0 a3 af eb 3f 27 d4 55 6e 54 55 83 3f
       0.8651903580917606 0.00944009744373815
0004a0 6d b4 a5 76 80 06 cf bf 7c b8 e6 64 8f e8 e9 bf
       -0.24238591950725966 -0.8096386881568516
0004b0 b1 f8 15 35 72 53 d9 bf 2d c5 7f 33 e4 6d f2 3f
       -0.3957181471267957 1.1518289577182472
0004c0 75 68 da 6b c4 96 ce bf 8b 1e 48 6a e5 e5 ec 3f
       -0.2389760519625416 0.9030634952368514
0004d0 cb c8 b5 3e fb da b0 bf 8a 95 1a 80 c6 af ed bf
       -0.06584139138229543 -0.9277069570568284
0004e0 cb 70 d2 e2 41 57 b8 bf 1e f8 24 b2 b0 7d a4 bf
       -0.09508144176146797 -0.04002144026388542
0004f0 02 35 38 a4 48 32 e0 bf 6c 8a dd 23 03 0e b5 bf
       -0.5061381537831553 -0.08224506021137196
000500 25 95 eb 20 fb 64 e4 3f 73 44 0e 50 9f 76 ed bf
       0.6373267786954427 -0.9207302630985751
000510 ea a0 fb 72 a7 81 bb bf c8 aa ce 21 82 5f 95 3f
       -0.10744711453628822 0.020872147859033047
000520 27 dd ca fa a5 f7 e0 3f d2 51 b0 26 37 91 c8 3f
       0.5302305124559198 0.19193162335490271
000530 20 2e e5 78 47 ec f4 bf 9d 83 58 4e 8b 45 d3 3f
       -1.3076853487463111 0.3011196389289184
000540 df 6c 40 83 9b 5b db 3f b6 75 50 06 a9 9f e1 3f
       0.4274662763361458 0.5507397769285294
000550 01 79 77 76 c7 5c eb 3f 14 50 8c 11 1c 15 ea bf
       0.8550755800058881 -0.8150768606888072
000560 2b 6f f5 45 36 68 d8 bf 5a 70 8a 7d 93 ea eb bf
       -0.38136059600741373 -0.8723847820251749
000570 f4 f1 c6 4f 00 7c e4 3f 8a e5 76 3a 7a be e1 3f
       0.6401368673464831 0.5545016424068063
000580 2e bb 8b c0 a1 33 e8 3f 29 88 b5 13 e4 41 dc bf
       0.7563027153645174 -0.4415216629478232
000590 23 40 0f 86 7d 48 e1 3f 54 87 26 73 33 ae e2 bf
       0.5400989168501876 -0.5837647675545932
0005a0 20 4e c4 b3 47 3f d6 3f bd fc 8e 9a e4 3d a0 3f
       0.34761230998376114 0.03172220598889328
0005b0 98 d7 47 29 bc 1c e8 3f c1 74 9d 6c 44 00 e3 3f
       0.7535076910269138 0.5937826272380776
0005c0 a9 c2 72 12 67 c0 e0 bf 42 80 6a bd be bb c0 3f
       -0.5234866485898994 0.13072952507809715
0005d0 6e d7 33 2b 03 03 e7 bf 5d 6c 43 dc f5 ca d4 3f
       -0.7191177219199127 0.3248877192506308
0005e0 01 e1 1d ca 67 8d e9 bf c3 06 67 cf ce 40 cc bf
       -0.7985114047615128 -0.2207277786929379
0005f0 7b ad f1 19 f8 52 c4 bf 03 0c 62 31 61 a4 ab bf
       -0.15878201739119988 -0.05398849227733395
000600 58 b8 ff 54 d3 9b 95 3f 9b 27 9c cb e3 11 a5 bf
       0.02110223966877131 -0.04115211353753453
000610 ac af 10 9f 61 26 d3 3f d8 3d 85 32 8a 19 b6 3f
       0.2992176106806663 0.0863272069302562
000620 9c ec 98 df 9d 2f ad bf 00 73 2e b7 ee 94 ae bf
       -0.057003911537742286 -0.059730014668479825
000630 ad a4 6a 64 7c 81 c3 bf 01 12 8b 14 aa ce 9a 3f
       -0.152389096290141 0.026178987029895854
000640 69 a0 43 da b2 e5 d9 bf e1 85 e6 f5 7f f0 d2 bf
       -0.4046446925626755 -0.29592894567221434
000650 20 58 45 d9 f0 73 f1 3f 40 ec 85 38 96 da b4 3f
       1.0908058631080237 0.08146036987265948
000660 75 e4 c1 7e 5b 23 aa bf 04 3e ae 22 36 36 c1 3f
       -0.05105100557643364 0.13446690266981431
000670 d5 a5 2f 8d 2a 21 d7 3f a5 ac 6b 94 ae 7c de bf
       0.3613993052263969 -0.4763599824352219
000680 5f 81 13 b5 91 54 ab 3f cd 06 b6 76 e4 01 e0 bf
       0.053379586557414475 -0.5002310103011155
000690 e1 44 86 a6 e3 1c e9 bf 9d 30 24 b5 98 15 c0 3f
       -0.7847765209609429 0.12565907330315876
0006a0 bf 6e 56 86 fc cb f0 bf 9f 01 59 84 83 1c c1 3f
       -1.0498013732493943 0.13368267023362265
0006b0 3b 4a 14 d1 65 81 dd 3f e8 db b6 97 ec 6c c1 3f
       0.4610228101529718 0.13613660247730697
0006c0 88 7f 0a 9c 9a 52 da 3f 9d 93 c3 19 f6 0f e5 bf
       0.4112917445981954 -0.6581984046175539
0006d0 3e 78 a2 86 c8 70 e3 3f 51 df a5 de 50 87 e0 3f
       0.6075174932082132 0.5165180538742594
0006e0 2a 0c 32 78 f4 de e3 3f 87 50 c0 da 0a b1 e3 bf
       0.6209661815231631 -0.6153616211399972
0006f0 40 3f a0 c8 bd 8a e0 bf 84 ad fe b3 88 49 e6 bf
       -0.5169361990428811 -0.6964763179325222
000700 41 66 40 be db 32 e5 3f b7 f0 4e e6 66 ea d3 3f
       0.6624582973337924 0.31118175974894363
000710 ae 98 6a fe ce 5a e1 3f ea 67 22 b1 49 4e c9 3f
       0.5423350304670487 0.19770165585651905
000720 4e 6a 1c 26 ef e6 e0 bf 0a 6d 92 7b 6b 3c e3 3f
       -0.5281902069430744 0.60112547049667
000730 20 bc 61 85 48 13 e8 bf 5c f6 a9 0f 69 23 a1 3f
       -0.7523539166558102 0.03347328487596421
000740 a2 c6 79 bd 33 b6 f0 bf 75 84 5f 23 db 61 e7 3f
       -1.0444829369920758 0.7306953135377073
000750 7c 10 7a 35 c9 b1 f1 3f 72 15 eb af 5f c5 e9 3f
       1.1059047783792542 0.80534347876589
000760 73 74 8e cf fe 78 e3 bf 5f 8e 98 f6 a3 c7 c4 bf
       -0.6085199407422252 -0.16234254399124645
000770 2c 5d c6 21 7b b5 d3 bf 02 2a d8 2f 04 14 df 3f
       -0.3079517202217683 0.4855967013578778
000780 42 5a 5f 75 3c 99 f2 3f 00 31 12 67 56 a4 dc 3f
       1.1624111733305118 0.44753036561520787
000790 17 cd 46 fe 9e 8c e0 bf f9 f4 48 86 e6 b3 d7 3f
       -0.51716565764801 0.3703552543045841
0007a0 23 90 09 e5 62 6b eb bf 99 96 a1 25 3e 75 d1 3f
       -0.8568586800943233 0.27278093027994427
0007b0 a3 f3 1c df 62 bc d0 bf 4f ec dc 7b 95 fd ce 3f
       -0.2614981821860118 0.24211376712796315
0007c0 94 22 4e 48 26 f2 d3 bf 19 c7 05 8b a0 8a ca bf
       -0.31165463505798496 -0.20735556400500668
0007d0 03 89 c0 d8 e7 29 b0 bf c8 77 7c 78 ce 68 ec 3f
       -0.06313942949103439 0.8877937653776309
0007e0 e7 0f af c1 2b f3 ef bf 58 6c 6a ba 29 81 ee bf
       -0.9984339506995611 -0.9532669678623149
0007f0 de 37 e3 9f a0 d2 cb bf 6d 41 7f 16 63 8c f2 3f
       -0.21736533934603036 1.159274185065523

l2b f8 [10]
000000 67 70 fd 78 8c e7 d7 3f 65 de 15 9a 04 82 ee bf
       0.37350761237553914 -0.9533713349801017
000010 9f 05 1c 16 f8 f8 fa 3f 1a 14 4a 79 7f 79 da bf
       1.6857834685946285 -0.4136656460253235
000020 f4 ca 7c d9 d4 d2 00 c0 c8 d2 f3 9a ff 87 d2 3f
       -2.102945040818094 0.2895506871421216
000030 35 47 8b ec 02 22 f1 3f 64 bd 31 26 87 14 d2 3f
       1.0708035697939071 0.2825029252043889
000040 1b dd 92 9f 5f 08 df bf ca fd df a8 f3 91 e5 3f
       -0.484886079629591 0.6740663812960801
